2021-08-08 03:34:23,642 | train | INFO | ===== Review Model Architecture =====
2021-08-08 03:34:23,665 | train | INFO | PoseHighResolutionNet(
  (conv1): Conv2d(3, 64, kernel_size=(3, 3), stride=(2, 2), padding=(1, 1), bias=False)
  (bn1): BatchNorm2d(64, eps=1e-05, momentum=0.1, affine=True, track_running_stats=True)
  (conv2): Conv2d(64, 64, kernel_size=(3, 3), stride=(2, 2), padding=(1, 1), bias=False)
  (bn2): BatchNorm2d(64, eps=1e-05, momentum=0.1, affine=True, track_running_stats=True)
  (relu): ReLU(inplace=True)
  (layer1): Sequential(
    (0): Bottleneck(
      (conv1): Conv2d(64, 64, kernel_size=(1, 1), stride=(1, 1), bias=False)
      (bn1): BatchNorm2d(64, eps=1e-05, momentum=0.1, affine=True, track_running_stats=True)
      (conv2): Conv2d(64, 64, kernel_size=(3, 3), stride=(1, 1), padding=(1, 1), bias=False)
      (bn2): BatchNorm2d(64, eps=1e-05, momentum=0.1, affine=True, track_running_stats=True)
      (conv3): Conv2d(64, 256, kernel_size=(1, 1), stride=(1, 1), bias=False)
      (bn3): BatchNorm2d(256, eps=1e-05, momentum=0.1, affine=True, track_running_stats=True)
      (relu): ReLU(inplace=True)
      (downsample): Sequential(
        (0): Conv2d(64, 256, kernel_size=(1, 1), stride=(1, 1), bias=False)
        (1): BatchNorm2d(256, eps=1e-05, momentum=0.1, affine=True, track_running_stats=True)
      )
    )
    (1): Bottleneck(
      (conv1): Conv2d(256, 64, kernel_size=(1, 1), stride=(1, 1), bias=False)
      (bn1): BatchNorm2d(64, eps=1e-05, momentum=0.1, affine=True, track_running_stats=True)
      (conv2): Conv2d(64, 64, kernel_size=(3, 3), stride=(1, 1), padding=(1, 1), bias=False)
      (bn2): BatchNorm2d(64, eps=1e-05, momentum=0.1, affine=True, track_running_stats=True)
      (conv3): Conv2d(64, 256, kernel_size=(1, 1), stride=(1, 1), bias=False)
      (bn3): BatchNorm2d(256, eps=1e-05, momentum=0.1, affine=True, track_running_stats=True)
      (relu): ReLU(inplace=True)
    )
    (2): Bottleneck(
      (conv1): Conv2d(256, 64, kernel_size=(1, 1), stride=(1, 1), bias=False)
      (bn1): BatchNorm2d(64, eps=1e-05, momentum=0.1, affine=True, track_running_stats=True)
      (conv2): Conv2d(64, 64, kernel_size=(3, 3), stride=(1, 1), padding=(1, 1), bias=False)
      (bn2): BatchNorm2d(64, eps=1e-05, momentum=0.1, affine=True, track_running_stats=True)
      (conv3): Conv2d(64, 256, kernel_size=(1, 1), stride=(1, 1), bias=False)
      (bn3): BatchNorm2d(256, eps=1e-05, momentum=0.1, affine=True, track_running_stats=True)
      (relu): ReLU(inplace=True)
    )
    (3): Bottleneck(
      (conv1): Conv2d(256, 64, kernel_size=(1, 1), stride=(1, 1), bias=False)
      (bn1): BatchNorm2d(64, eps=1e-05, momentum=0.1, affine=True, track_running_stats=True)
      (conv2): Conv2d(64, 64, kernel_size=(3, 3), stride=(1, 1), padding=(1, 1), bias=False)
      (bn2): BatchNorm2d(64, eps=1e-05, momentum=0.1, affine=True, track_running_stats=True)
      (conv3): Conv2d(64, 256, kernel_size=(1, 1), stride=(1, 1), bias=False)
      (bn3): BatchNorm2d(256, eps=1e-05, momentum=0.1, affine=True, track_running_stats=True)
      (relu): ReLU(inplace=True)
    )
  )
  (transition1): ModuleList(
    (0): Sequential(
      (0): Conv2d(256, 48, kernel_size=(3, 3), stride=(1, 1), padding=(1, 1), bias=False)
      (1): BatchNorm2d(48, eps=1e-05, momentum=0.1, affine=True, track_running_stats=True)
      (2): ReLU(inplace=True)
    )
    (1): Sequential(
      (0): Sequential(
        (0): Conv2d(256, 96, kernel_size=(3, 3), stride=(2, 2), padding=(1, 1), bias=False)
        (1): BatchNorm2d(96, eps=1e-05, momentum=0.1, affine=True, track_running_stats=True)
        (2): ReLU(inplace=True)
      )
    )
  )
  (stage2): Sequential(
    (0): HighResolutionModule(
      (branches): ModuleList(
        (0): Sequential(
          (0): BasicBlock(
            (conv1): Conv2d(48, 48, kernel_size=(3, 3), stride=(1, 1), padding=(1, 1), bias=False)
            (bn1): BatchNorm2d(48, eps=1e-05, momentum=0.1, affine=True, track_running_stats=True)
            (relu): ReLU(inplace=True)
            (PSA): PSA_s(
              (conv_q_right): Conv2d(48, 1, kernel_size=(1, 1), stride=(1, 1), bias=False)
              (conv_v_right): Conv2d(48, 24, kernel_size=(1, 1), stride=(1, 1), bias=False)
              (conv_up): Sequential(
                (0): Conv2d(24, 6, kernel_size=(1, 1), stride=(1, 1))
                (1): LayerNorm((6, 1, 1), eps=1e-05, elementwise_affine=True)
                (2): ReLU(inplace=True)
                (3): Conv2d(6, 48, kernel_size=(1, 1), stride=(1, 1))
              )
              (softmax_right): Softmax(dim=2)
              (sigmoid): Sigmoid()
              (conv_q_left): Conv2d(48, 24, kernel_size=(1, 1), stride=(1, 1), bias=False)
              (avg_pool): AdaptiveAvgPool2d(output_size=1)
              (conv_v_left): Conv2d(48, 24, kernel_size=(1, 1), stride=(1, 1), bias=False)
              (softmax_left): Softmax(dim=2)
            )
            (conv2): Conv2d(48, 48, kernel_size=(3, 3), stride=(1, 1), padding=(1, 1), bias=False)
            (bn2): BatchNorm2d(48, eps=1e-05, momentum=0.1, affine=True, track_running_stats=True)
          )
          (1): BasicBlock(
            (conv1): Conv2d(48, 48, kernel_size=(3, 3), stride=(1, 1), padding=(1, 1), bias=False)
            (bn1): BatchNorm2d(48, eps=1e-05, momentum=0.1, affine=True, track_running_stats=True)
            (relu): ReLU(inplace=True)
            (PSA): PSA_s(
              (conv_q_right): Conv2d(48, 1, kernel_size=(1, 1), stride=(1, 1), bias=False)
              (conv_v_right): Conv2d(48, 24, kernel_size=(1, 1), stride=(1, 1), bias=False)
              (conv_up): Sequential(
                (0): Conv2d(24, 6, kernel_size=(1, 1), stride=(1, 1))
                (1): LayerNorm((6, 1, 1), eps=1e-05, elementwise_affine=True)
                (2): ReLU(inplace=True)
                (3): Conv2d(6, 48, kernel_size=(1, 1), stride=(1, 1))
              )
              (softmax_right): Softmax(dim=2)
              (sigmoid): Sigmoid()
              (conv_q_left): Conv2d(48, 24, kernel_size=(1, 1), stride=(1, 1), bias=False)
              (avg_pool): AdaptiveAvgPool2d(output_size=1)
              (conv_v_left): Conv2d(48, 24, kernel_size=(1, 1), stride=(1, 1), bias=False)
              (softmax_left): Softmax(dim=2)
            )
            (conv2): Conv2d(48, 48, kernel_size=(3, 3), stride=(1, 1), padding=(1, 1), bias=False)
            (bn2): BatchNorm2d(48, eps=1e-05, momentum=0.1, affine=True, track_running_stats=True)
          )
          (2): BasicBlock(
            (conv1): Conv2d(48, 48, kernel_size=(3, 3), stride=(1, 1), padding=(1, 1), bias=False)
            (bn1): BatchNorm2d(48, eps=1e-05, momentum=0.1, affine=True, track_running_stats=True)
            (relu): ReLU(inplace=True)
            (PSA): PSA_s(
              (conv_q_right): Conv2d(48, 1, kernel_size=(1, 1), stride=(1, 1), bias=False)
              (conv_v_right): Conv2d(48, 24, kernel_size=(1, 1), stride=(1, 1), bias=False)
              (conv_up): Sequential(
                (0): Conv2d(24, 6, kernel_size=(1, 1), stride=(1, 1))
                (1): LayerNorm((6, 1, 1), eps=1e-05, elementwise_affine=True)
                (2): ReLU(inplace=True)
                (3): Conv2d(6, 48, kernel_size=(1, 1), stride=(1, 1))
              )
              (softmax_right): Softmax(dim=2)
              (sigmoid): Sigmoid()
              (conv_q_left): Conv2d(48, 24, kernel_size=(1, 1), stride=(1, 1), bias=False)
              (avg_pool): AdaptiveAvgPool2d(output_size=1)
              (conv_v_left): Conv2d(48, 24, kernel_size=(1, 1), stride=(1, 1), bias=False)
              (softmax_left): Softmax(dim=2)
            )
            (conv2): Conv2d(48, 48, kernel_size=(3, 3), stride=(1, 1), padding=(1, 1), bias=False)
            (bn2): BatchNorm2d(48, eps=1e-05, momentum=0.1, affine=True, track_running_stats=True)
          )
          (3): BasicBlock(
            (conv1): Conv2d(48, 48, kernel_size=(3, 3), stride=(1, 1), padding=(1, 1), bias=False)
            (bn1): BatchNorm2d(48, eps=1e-05, momentum=0.1, affine=True, track_running_stats=True)
            (relu): ReLU(inplace=True)
            (PSA): PSA_s(
              (conv_q_right): Conv2d(48, 1, kernel_size=(1, 1), stride=(1, 1), bias=False)
              (conv_v_right): Conv2d(48, 24, kernel_size=(1, 1), stride=(1, 1), bias=False)
              (conv_up): Sequential(
                (0): Conv2d(24, 6, kernel_size=(1, 1), stride=(1, 1))
                (1): LayerNorm((6, 1, 1), eps=1e-05, elementwise_affine=True)
                (2): ReLU(inplace=True)
                (3): Conv2d(6, 48, kernel_size=(1, 1), stride=(1, 1))
              )
              (softmax_right): Softmax(dim=2)
              (sigmoid): Sigmoid()
              (conv_q_left): Conv2d(48, 24, kernel_size=(1, 1), stride=(1, 1), bias=False)
              (avg_pool): AdaptiveAvgPool2d(output_size=1)
              (conv_v_left): Conv2d(48, 24, kernel_size=(1, 1), stride=(1, 1), bias=False)
              (softmax_left): Softmax(dim=2)
            )
            (conv2): Conv2d(48, 48, kernel_size=(3, 3), stride=(1, 1), padding=(1, 1), bias=False)
            (bn2): BatchNorm2d(48, eps=1e-05, momentum=0.1, affine=True, track_running_stats=True)
          )
        )
        (1): Sequential(
          (0): BasicBlock(
            (conv1): Conv2d(96, 96, kernel_size=(3, 3), stride=(1, 1), padding=(1, 1), bias=False)
            (bn1): BatchNorm2d(96, eps=1e-05, momentum=0.1, affine=True, track_running_stats=True)
            (relu): ReLU(inplace=True)
            (PSA): PSA_s(
              (conv_q_right): Conv2d(96, 1, kernel_size=(1, 1), stride=(1, 1), bias=False)
              (conv_v_right): Conv2d(96, 48, kernel_size=(1, 1), stride=(1, 1), bias=False)
              (conv_up): Sequential(
                (0): Conv2d(48, 12, kernel_size=(1, 1), stride=(1, 1))
                (1): LayerNorm((12, 1, 1), eps=1e-05, elementwise_affine=True)
                (2): ReLU(inplace=True)
                (3): Conv2d(12, 96, kernel_size=(1, 1), stride=(1, 1))
              )
              (softmax_right): Softmax(dim=2)
              (sigmoid): Sigmoid()
              (conv_q_left): Conv2d(96, 48, kernel_size=(1, 1), stride=(1, 1), bias=False)
              (avg_pool): AdaptiveAvgPool2d(output_size=1)
              (conv_v_left): Conv2d(96, 48, kernel_size=(1, 1), stride=(1, 1), bias=False)
              (softmax_left): Softmax(dim=2)
            )
            (conv2): Conv2d(96, 96, kernel_size=(3, 3), stride=(1, 1), padding=(1, 1), bias=False)
            (bn2): BatchNorm2d(96, eps=1e-05, momentum=0.1, affine=True, track_running_stats=True)
          )
          (1): BasicBlock(
            (conv1): Conv2d(96, 96, kernel_size=(3, 3), stride=(1, 1), padding=(1, 1), bias=False)
            (bn1): BatchNorm2d(96, eps=1e-05, momentum=0.1, affine=True, track_running_stats=True)
            (relu): ReLU(inplace=True)
            (PSA): PSA_s(
              (conv_q_right): Conv2d(96, 1, kernel_size=(1, 1), stride=(1, 1), bias=False)
              (conv_v_right): Conv2d(96, 48, kernel_size=(1, 1), stride=(1, 1), bias=False)
              (conv_up): Sequential(
                (0): Conv2d(48, 12, kernel_size=(1, 1), stride=(1, 1))
                (1): LayerNorm((12, 1, 1), eps=1e-05, elementwise_affine=True)
                (2): ReLU(inplace=True)
                (3): Conv2d(12, 96, kernel_size=(1, 1), stride=(1, 1))
              )
              (softmax_right): Softmax(dim=2)
              (sigmoid): Sigmoid()
              (conv_q_left): Conv2d(96, 48, kernel_size=(1, 1), stride=(1, 1), bias=False)
              (avg_pool): AdaptiveAvgPool2d(output_size=1)
              (conv_v_left): Conv2d(96, 48, kernel_size=(1, 1), stride=(1, 1), bias=False)
              (softmax_left): Softmax(dim=2)
            )
            (conv2): Conv2d(96, 96, kernel_size=(3, 3), stride=(1, 1), padding=(1, 1), bias=False)
            (bn2): BatchNorm2d(96, eps=1e-05, momentum=0.1, affine=True, track_running_stats=True)
          )
          (2): BasicBlock(
            (conv1): Conv2d(96, 96, kernel_size=(3, 3), stride=(1, 1), padding=(1, 1), bias=False)
            (bn1): BatchNorm2d(96, eps=1e-05, momentum=0.1, affine=True, track_running_stats=True)
            (relu): ReLU(inplace=True)
            (PSA): PSA_s(
              (conv_q_right): Conv2d(96, 1, kernel_size=(1, 1), stride=(1, 1), bias=False)
              (conv_v_right): Conv2d(96, 48, kernel_size=(1, 1), stride=(1, 1), bias=False)
              (conv_up): Sequential(
                (0): Conv2d(48, 12, kernel_size=(1, 1), stride=(1, 1))
                (1): LayerNorm((12, 1, 1), eps=1e-05, elementwise_affine=True)
                (2): ReLU(inplace=True)
                (3): Conv2d(12, 96, kernel_size=(1, 1), stride=(1, 1))
              )
              (softmax_right): Softmax(dim=2)
              (sigmoid): Sigmoid()
              (conv_q_left): Conv2d(96, 48, kernel_size=(1, 1), stride=(1, 1), bias=False)
              (avg_pool): AdaptiveAvgPool2d(output_size=1)
              (conv_v_left): Conv2d(96, 48, kernel_size=(1, 1), stride=(1, 1), bias=False)
              (softmax_left): Softmax(dim=2)
            )
            (conv2): Conv2d(96, 96, kernel_size=(3, 3), stride=(1, 1), padding=(1, 1), bias=False)
            (bn2): BatchNorm2d(96, eps=1e-05, momentum=0.1, affine=True, track_running_stats=True)
          )
          (3): BasicBlock(
            (conv1): Conv2d(96, 96, kernel_size=(3, 3), stride=(1, 1), padding=(1, 1), bias=False)
            (bn1): BatchNorm2d(96, eps=1e-05, momentum=0.1, affine=True, track_running_stats=True)
            (relu): ReLU(inplace=True)
            (PSA): PSA_s(
              (conv_q_right): Conv2d(96, 1, kernel_size=(1, 1), stride=(1, 1), bias=False)
              (conv_v_right): Conv2d(96, 48, kernel_size=(1, 1), stride=(1, 1), bias=False)
              (conv_up): Sequential(
                (0): Conv2d(48, 12, kernel_size=(1, 1), stride=(1, 1))
                (1): LayerNorm((12, 1, 1), eps=1e-05, elementwise_affine=True)
                (2): ReLU(inplace=True)
                (3): Conv2d(12, 96, kernel_size=(1, 1), stride=(1, 1))
              )
              (softmax_right): Softmax(dim=2)
              (sigmoid): Sigmoid()
              (conv_q_left): Conv2d(96, 48, kernel_size=(1, 1), stride=(1, 1), bias=False)
              (avg_pool): AdaptiveAvgPool2d(output_size=1)
              (conv_v_left): Conv2d(96, 48, kernel_size=(1, 1), stride=(1, 1), bias=False)
              (softmax_left): Softmax(dim=2)
            )
            (conv2): Conv2d(96, 96, kernel_size=(3, 3), stride=(1, 1), padding=(1, 1), bias=False)
            (bn2): BatchNorm2d(96, eps=1e-05, momentum=0.1, affine=True, track_running_stats=True)
          )
        )
      )
      (fuse_layers): ModuleList(
        (0): ModuleList(
          (0): None
          (1): Sequential(
            (0): Conv2d(96, 48, kernel_size=(1, 1), stride=(1, 1), bias=False)
            (1): BatchNorm2d(48, eps=1e-05, momentum=0.1, affine=True, track_running_stats=True)
            (2): Upsample(scale_factor=2.0, mode=nearest)
          )
        )
        (1): ModuleList(
          (0): Sequential(
            (0): Sequential(
              (0): Conv2d(48, 96, kernel_size=(3, 3), stride=(2, 2), padding=(1, 1), bias=False)
              (1): BatchNorm2d(96, eps=1e-05, momentum=0.1, affine=True, track_running_stats=True)
            )
          )
          (1): None
        )
      )
      (relu): ReLU(inplace=True)
    )
  )
  (transition2): ModuleList(
    (0): None
    (1): None
    (2): Sequential(
      (0): Sequential(
        (0): Conv2d(96, 192, kernel_size=(3, 3), stride=(2, 2), padding=(1, 1), bias=False)
        (1): BatchNorm2d(192, eps=1e-05, momentum=0.1, affine=True, track_running_stats=True)
        (2): ReLU(inplace=True)
      )
    )
  )
  (stage3): Sequential(
    (0): HighResolutionModule(
      (branches): ModuleList(
        (0): Sequential(
          (0): BasicBlock(
            (conv1): Conv2d(48, 48, kernel_size=(3, 3), stride=(1, 1), padding=(1, 1), bias=False)
            (bn1): BatchNorm2d(48, eps=1e-05, momentum=0.1, affine=True, track_running_stats=True)
            (relu): ReLU(inplace=True)
            (PSA): PSA_s(
              (conv_q_right): Conv2d(48, 1, kernel_size=(1, 1), stride=(1, 1), bias=False)
              (conv_v_right): Conv2d(48, 24, kernel_size=(1, 1), stride=(1, 1), bias=False)
              (conv_up): Sequential(
                (0): Conv2d(24, 6, kernel_size=(1, 1), stride=(1, 1))
                (1): LayerNorm((6, 1, 1), eps=1e-05, elementwise_affine=True)
                (2): ReLU(inplace=True)
                (3): Conv2d(6, 48, kernel_size=(1, 1), stride=(1, 1))
              )
              (softmax_right): Softmax(dim=2)
              (sigmoid): Sigmoid()
              (conv_q_left): Conv2d(48, 24, kernel_size=(1, 1), stride=(1, 1), bias=False)
              (avg_pool): AdaptiveAvgPool2d(output_size=1)
              (conv_v_left): Conv2d(48, 24, kernel_size=(1, 1), stride=(1, 1), bias=False)
              (softmax_left): Softmax(dim=2)
            )
            (conv2): Conv2d(48, 48, kernel_size=(3, 3), stride=(1, 1), padding=(1, 1), bias=False)
            (bn2): BatchNorm2d(48, eps=1e-05, momentum=0.1, affine=True, track_running_stats=True)
          )
          (1): BasicBlock(
            (conv1): Conv2d(48, 48, kernel_size=(3, 3), stride=(1, 1), padding=(1, 1), bias=False)
            (bn1): BatchNorm2d(48, eps=1e-05, momentum=0.1, affine=True, track_running_stats=True)
            (relu): ReLU(inplace=True)
            (PSA): PSA_s(
              (conv_q_right): Conv2d(48, 1, kernel_size=(1, 1), stride=(1, 1), bias=False)
              (conv_v_right): Conv2d(48, 24, kernel_size=(1, 1), stride=(1, 1), bias=False)
              (conv_up): Sequential(
                (0): Conv2d(24, 6, kernel_size=(1, 1), stride=(1, 1))
                (1): LayerNorm((6, 1, 1), eps=1e-05, elementwise_affine=True)
                (2): ReLU(inplace=True)
                (3): Conv2d(6, 48, kernel_size=(1, 1), stride=(1, 1))
              )
              (softmax_right): Softmax(dim=2)
              (sigmoid): Sigmoid()
              (conv_q_left): Conv2d(48, 24, kernel_size=(1, 1), stride=(1, 1), bias=False)
              (avg_pool): AdaptiveAvgPool2d(output_size=1)
              (conv_v_left): Conv2d(48, 24, kernel_size=(1, 1), stride=(1, 1), bias=False)
              (softmax_left): Softmax(dim=2)
            )
            (conv2): Conv2d(48, 48, kernel_size=(3, 3), stride=(1, 1), padding=(1, 1), bias=False)
            (bn2): BatchNorm2d(48, eps=1e-05, momentum=0.1, affine=True, track_running_stats=True)
          )
          (2): BasicBlock(
            (conv1): Conv2d(48, 48, kernel_size=(3, 3), stride=(1, 1), padding=(1, 1), bias=False)
            (bn1): BatchNorm2d(48, eps=1e-05, momentum=0.1, affine=True, track_running_stats=True)
            (relu): ReLU(inplace=True)
            (PSA): PSA_s(
              (conv_q_right): Conv2d(48, 1, kernel_size=(1, 1), stride=(1, 1), bias=False)
              (conv_v_right): Conv2d(48, 24, kernel_size=(1, 1), stride=(1, 1), bias=False)
              (conv_up): Sequential(
                (0): Conv2d(24, 6, kernel_size=(1, 1), stride=(1, 1))
                (1): LayerNorm((6, 1, 1), eps=1e-05, elementwise_affine=True)
                (2): ReLU(inplace=True)
                (3): Conv2d(6, 48, kernel_size=(1, 1), stride=(1, 1))
              )
              (softmax_right): Softmax(dim=2)
              (sigmoid): Sigmoid()
              (conv_q_left): Conv2d(48, 24, kernel_size=(1, 1), stride=(1, 1), bias=False)
              (avg_pool): AdaptiveAvgPool2d(output_size=1)
              (conv_v_left): Conv2d(48, 24, kernel_size=(1, 1), stride=(1, 1), bias=False)
              (softmax_left): Softmax(dim=2)
            )
            (conv2): Conv2d(48, 48, kernel_size=(3, 3), stride=(1, 1), padding=(1, 1), bias=False)
            (bn2): BatchNorm2d(48, eps=1e-05, momentum=0.1, affine=True, track_running_stats=True)
          )
          (3): BasicBlock(
            (conv1): Conv2d(48, 48, kernel_size=(3, 3), stride=(1, 1), padding=(1, 1), bias=False)
            (bn1): BatchNorm2d(48, eps=1e-05, momentum=0.1, affine=True, track_running_stats=True)
            (relu): ReLU(inplace=True)
            (PSA): PSA_s(
              (conv_q_right): Conv2d(48, 1, kernel_size=(1, 1), stride=(1, 1), bias=False)
              (conv_v_right): Conv2d(48, 24, kernel_size=(1, 1), stride=(1, 1), bias=False)
              (conv_up): Sequential(
                (0): Conv2d(24, 6, kernel_size=(1, 1), stride=(1, 1))
                (1): LayerNorm((6, 1, 1), eps=1e-05, elementwise_affine=True)
                (2): ReLU(inplace=True)
                (3): Conv2d(6, 48, kernel_size=(1, 1), stride=(1, 1))
              )
              (softmax_right): Softmax(dim=2)
              (sigmoid): Sigmoid()
              (conv_q_left): Conv2d(48, 24, kernel_size=(1, 1), stride=(1, 1), bias=False)
              (avg_pool): AdaptiveAvgPool2d(output_size=1)
              (conv_v_left): Conv2d(48, 24, kernel_size=(1, 1), stride=(1, 1), bias=False)
              (softmax_left): Softmax(dim=2)
            )
            (conv2): Conv2d(48, 48, kernel_size=(3, 3), stride=(1, 1), padding=(1, 1), bias=False)
            (bn2): BatchNorm2d(48, eps=1e-05, momentum=0.1, affine=True, track_running_stats=True)
          )
        )
        (1): Sequential(
          (0): BasicBlock(
            (conv1): Conv2d(96, 96, kernel_size=(3, 3), stride=(1, 1), padding=(1, 1), bias=False)
            (bn1): BatchNorm2d(96, eps=1e-05, momentum=0.1, affine=True, track_running_stats=True)
            (relu): ReLU(inplace=True)
            (PSA): PSA_s(
              (conv_q_right): Conv2d(96, 1, kernel_size=(1, 1), stride=(1, 1), bias=False)
              (conv_v_right): Conv2d(96, 48, kernel_size=(1, 1), stride=(1, 1), bias=False)
              (conv_up): Sequential(
                (0): Conv2d(48, 12, kernel_size=(1, 1), stride=(1, 1))
                (1): LayerNorm((12, 1, 1), eps=1e-05, elementwise_affine=True)
                (2): ReLU(inplace=True)
                (3): Conv2d(12, 96, kernel_size=(1, 1), stride=(1, 1))
              )
              (softmax_right): Softmax(dim=2)
              (sigmoid): Sigmoid()
              (conv_q_left): Conv2d(96, 48, kernel_size=(1, 1), stride=(1, 1), bias=False)
              (avg_pool): AdaptiveAvgPool2d(output_size=1)
              (conv_v_left): Conv2d(96, 48, kernel_size=(1, 1), stride=(1, 1), bias=False)
              (softmax_left): Softmax(dim=2)
            )
            (conv2): Conv2d(96, 96, kernel_size=(3, 3), stride=(1, 1), padding=(1, 1), bias=False)
            (bn2): BatchNorm2d(96, eps=1e-05, momentum=0.1, affine=True, track_running_stats=True)
          )
          (1): BasicBlock(
            (conv1): Conv2d(96, 96, kernel_size=(3, 3), stride=(1, 1), padding=(1, 1), bias=False)
            (bn1): BatchNorm2d(96, eps=1e-05, momentum=0.1, affine=True, track_running_stats=True)
            (relu): ReLU(inplace=True)
            (PSA): PSA_s(
              (conv_q_right): Conv2d(96, 1, kernel_size=(1, 1), stride=(1, 1), bias=False)
              (conv_v_right): Conv2d(96, 48, kernel_size=(1, 1), stride=(1, 1), bias=False)
              (conv_up): Sequential(
                (0): Conv2d(48, 12, kernel_size=(1, 1), stride=(1, 1))
                (1): LayerNorm((12, 1, 1), eps=1e-05, elementwise_affine=True)
                (2): ReLU(inplace=True)
                (3): Conv2d(12, 96, kernel_size=(1, 1), stride=(1, 1))
              )
              (softmax_right): Softmax(dim=2)
              (sigmoid): Sigmoid()
              (conv_q_left): Conv2d(96, 48, kernel_size=(1, 1), stride=(1, 1), bias=False)
              (avg_pool): AdaptiveAvgPool2d(output_size=1)
              (conv_v_left): Conv2d(96, 48, kernel_size=(1, 1), stride=(1, 1), bias=False)
              (softmax_left): Softmax(dim=2)
            )
            (conv2): Conv2d(96, 96, kernel_size=(3, 3), stride=(1, 1), padding=(1, 1), bias=False)
            (bn2): BatchNorm2d(96, eps=1e-05, momentum=0.1, affine=True, track_running_stats=True)
          )
          (2): BasicBlock(
            (conv1): Conv2d(96, 96, kernel_size=(3, 3), stride=(1, 1), padding=(1, 1), bias=False)
            (bn1): BatchNorm2d(96, eps=1e-05, momentum=0.1, affine=True, track_running_stats=True)
            (relu): ReLU(inplace=True)
            (PSA): PSA_s(
              (conv_q_right): Conv2d(96, 1, kernel_size=(1, 1), stride=(1, 1), bias=False)
              (conv_v_right): Conv2d(96, 48, kernel_size=(1, 1), stride=(1, 1), bias=False)
              (conv_up): Sequential(
                (0): Conv2d(48, 12, kernel_size=(1, 1), stride=(1, 1))
                (1): LayerNorm((12, 1, 1), eps=1e-05, elementwise_affine=True)
                (2): ReLU(inplace=True)
                (3): Conv2d(12, 96, kernel_size=(1, 1), stride=(1, 1))
              )
              (softmax_right): Softmax(dim=2)
              (sigmoid): Sigmoid()
              (conv_q_left): Conv2d(96, 48, kernel_size=(1, 1), stride=(1, 1), bias=False)
              (avg_pool): AdaptiveAvgPool2d(output_size=1)
              (conv_v_left): Conv2d(96, 48, kernel_size=(1, 1), stride=(1, 1), bias=False)
              (softmax_left): Softmax(dim=2)
            )
            (conv2): Conv2d(96, 96, kernel_size=(3, 3), stride=(1, 1), padding=(1, 1), bias=False)
            (bn2): BatchNorm2d(96, eps=1e-05, momentum=0.1, affine=True, track_running_stats=True)
          )
          (3): BasicBlock(
            (conv1): Conv2d(96, 96, kernel_size=(3, 3), stride=(1, 1), padding=(1, 1), bias=False)
            (bn1): BatchNorm2d(96, eps=1e-05, momentum=0.1, affine=True, track_running_stats=True)
            (relu): ReLU(inplace=True)
            (PSA): PSA_s(
              (conv_q_right): Conv2d(96, 1, kernel_size=(1, 1), stride=(1, 1), bias=False)
              (conv_v_right): Conv2d(96, 48, kernel_size=(1, 1), stride=(1, 1), bias=False)
              (conv_up): Sequential(
                (0): Conv2d(48, 12, kernel_size=(1, 1), stride=(1, 1))
                (1): LayerNorm((12, 1, 1), eps=1e-05, elementwise_affine=True)
                (2): ReLU(inplace=True)
                (3): Conv2d(12, 96, kernel_size=(1, 1), stride=(1, 1))
              )
              (softmax_right): Softmax(dim=2)
              (sigmoid): Sigmoid()
              (conv_q_left): Conv2d(96, 48, kernel_size=(1, 1), stride=(1, 1), bias=False)
              (avg_pool): AdaptiveAvgPool2d(output_size=1)
              (conv_v_left): Conv2d(96, 48, kernel_size=(1, 1), stride=(1, 1), bias=False)
              (softmax_left): Softmax(dim=2)
            )
            (conv2): Conv2d(96, 96, kernel_size=(3, 3), stride=(1, 1), padding=(1, 1), bias=False)
            (bn2): BatchNorm2d(96, eps=1e-05, momentum=0.1, affine=True, track_running_stats=True)
          )
        )
        (2): Sequential(
          (0): BasicBlock(
            (conv1): Conv2d(192, 192, kernel_size=(3, 3), stride=(1, 1), padding=(1, 1), bias=False)
            (bn1): BatchNorm2d(192, eps=1e-05, momentum=0.1, affine=True, track_running_stats=True)
            (relu): ReLU(inplace=True)
            (PSA): PSA_s(
              (conv_q_right): Conv2d(192, 1, kernel_size=(1, 1), stride=(1, 1), bias=False)
              (conv_v_right): Conv2d(192, 96, kernel_size=(1, 1), stride=(1, 1), bias=False)
              (conv_up): Sequential(
                (0): Conv2d(96, 24, kernel_size=(1, 1), stride=(1, 1))
                (1): LayerNorm((24, 1, 1), eps=1e-05, elementwise_affine=True)
                (2): ReLU(inplace=True)
                (3): Conv2d(24, 192, kernel_size=(1, 1), stride=(1, 1))
              )
              (softmax_right): Softmax(dim=2)
              (sigmoid): Sigmoid()
              (conv_q_left): Conv2d(192, 96, kernel_size=(1, 1), stride=(1, 1), bias=False)
              (avg_pool): AdaptiveAvgPool2d(output_size=1)
              (conv_v_left): Conv2d(192, 96, kernel_size=(1, 1), stride=(1, 1), bias=False)
              (softmax_left): Softmax(dim=2)
            )
            (conv2): Conv2d(192, 192, kernel_size=(3, 3), stride=(1, 1), padding=(1, 1), bias=False)
            (bn2): BatchNorm2d(192, eps=1e-05, momentum=0.1, affine=True, track_running_stats=True)
          )
          (1): BasicBlock(
            (conv1): Conv2d(192, 192, kernel_size=(3, 3), stride=(1, 1), padding=(1, 1), bias=False)
            (bn1): BatchNorm2d(192, eps=1e-05, momentum=0.1, affine=True, track_running_stats=True)
            (relu): ReLU(inplace=True)
            (PSA): PSA_s(
              (conv_q_right): Conv2d(192, 1, kernel_size=(1, 1), stride=(1, 1), bias=False)
              (conv_v_right): Conv2d(192, 96, kernel_size=(1, 1), stride=(1, 1), bias=False)
              (conv_up): Sequential(
                (0): Conv2d(96, 24, kernel_size=(1, 1), stride=(1, 1))
                (1): LayerNorm((24, 1, 1), eps=1e-05, elementwise_affine=True)
                (2): ReLU(inplace=True)
                (3): Conv2d(24, 192, kernel_size=(1, 1), stride=(1, 1))
              )
              (softmax_right): Softmax(dim=2)
              (sigmoid): Sigmoid()
              (conv_q_left): Conv2d(192, 96, kernel_size=(1, 1), stride=(1, 1), bias=False)
              (avg_pool): AdaptiveAvgPool2d(output_size=1)
              (conv_v_left): Conv2d(192, 96, kernel_size=(1, 1), stride=(1, 1), bias=False)
              (softmax_left): Softmax(dim=2)
            )
            (conv2): Conv2d(192, 192, kernel_size=(3, 3), stride=(1, 1), padding=(1, 1), bias=False)
            (bn2): BatchNorm2d(192, eps=1e-05, momentum=0.1, affine=True, track_running_stats=True)
          )
          (2): BasicBlock(
            (conv1): Conv2d(192, 192, kernel_size=(3, 3), stride=(1, 1), padding=(1, 1), bias=False)
            (bn1): BatchNorm2d(192, eps=1e-05, momentum=0.1, affine=True, track_running_stats=True)
            (relu): ReLU(inplace=True)
            (PSA): PSA_s(
              (conv_q_right): Conv2d(192, 1, kernel_size=(1, 1), stride=(1, 1), bias=False)
              (conv_v_right): Conv2d(192, 96, kernel_size=(1, 1), stride=(1, 1), bias=False)
              (conv_up): Sequential(
                (0): Conv2d(96, 24, kernel_size=(1, 1), stride=(1, 1))
                (1): LayerNorm((24, 1, 1), eps=1e-05, elementwise_affine=True)
                (2): ReLU(inplace=True)
                (3): Conv2d(24, 192, kernel_size=(1, 1), stride=(1, 1))
              )
              (softmax_right): Softmax(dim=2)
              (sigmoid): Sigmoid()
              (conv_q_left): Conv2d(192, 96, kernel_size=(1, 1), stride=(1, 1), bias=False)
              (avg_pool): AdaptiveAvgPool2d(output_size=1)
              (conv_v_left): Conv2d(192, 96, kernel_size=(1, 1), stride=(1, 1), bias=False)
              (softmax_left): Softmax(dim=2)
            )
            (conv2): Conv2d(192, 192, kernel_size=(3, 3), stride=(1, 1), padding=(1, 1), bias=False)
            (bn2): BatchNorm2d(192, eps=1e-05, momentum=0.1, affine=True, track_running_stats=True)
          )
          (3): BasicBlock(
            (conv1): Conv2d(192, 192, kernel_size=(3, 3), stride=(1, 1), padding=(1, 1), bias=False)
            (bn1): BatchNorm2d(192, eps=1e-05, momentum=0.1, affine=True, track_running_stats=True)
            (relu): ReLU(inplace=True)
            (PSA): PSA_s(
              (conv_q_right): Conv2d(192, 1, kernel_size=(1, 1), stride=(1, 1), bias=False)
              (conv_v_right): Conv2d(192, 96, kernel_size=(1, 1), stride=(1, 1), bias=False)
              (conv_up): Sequential(
                (0): Conv2d(96, 24, kernel_size=(1, 1), stride=(1, 1))
                (1): LayerNorm((24, 1, 1), eps=1e-05, elementwise_affine=True)
                (2): ReLU(inplace=True)
                (3): Conv2d(24, 192, kernel_size=(1, 1), stride=(1, 1))
              )
              (softmax_right): Softmax(dim=2)
              (sigmoid): Sigmoid()
              (conv_q_left): Conv2d(192, 96, kernel_size=(1, 1), stride=(1, 1), bias=False)
              (avg_pool): AdaptiveAvgPool2d(output_size=1)
              (conv_v_left): Conv2d(192, 96, kernel_size=(1, 1), stride=(1, 1), bias=False)
              (softmax_left): Softmax(dim=2)
            )
            (conv2): Conv2d(192, 192, kernel_size=(3, 3), stride=(1, 1), padding=(1, 1), bias=False)
            (bn2): BatchNorm2d(192, eps=1e-05, momentum=0.1, affine=True, track_running_stats=True)
          )
        )
      )
      (fuse_layers): ModuleList(
        (0): ModuleList(
          (0): None
          (1): Sequential(
            (0): Conv2d(96, 48, kernel_size=(1, 1), stride=(1, 1), bias=False)
            (1): BatchNorm2d(48, eps=1e-05, momentum=0.1, affine=True, track_running_stats=True)
            (2): Upsample(scale_factor=2.0, mode=nearest)
          )
          (2): Sequential(
            (0): Conv2d(192, 48, kernel_size=(1, 1), stride=(1, 1), bias=False)
            (1): BatchNorm2d(48, eps=1e-05, momentum=0.1, affine=True, track_running_stats=True)
            (2): Upsample(scale_factor=4.0, mode=nearest)
          )
        )
        (1): ModuleList(
          (0): Sequential(
            (0): Sequential(
              (0): Conv2d(48, 96, kernel_size=(3, 3), stride=(2, 2), padding=(1, 1), bias=False)
              (1): BatchNorm2d(96, eps=1e-05, momentum=0.1, affine=True, track_running_stats=True)
            )
          )
          (1): None
          (2): Sequential(
            (0): Conv2d(192, 96, kernel_size=(1, 1), stride=(1, 1), bias=False)
            (1): BatchNorm2d(96, eps=1e-05, momentum=0.1, affine=True, track_running_stats=True)
            (2): Upsample(scale_factor=2.0, mode=nearest)
          )
        )
        (2): ModuleList(
          (0): Sequential(
            (0): Sequential(
              (0): Conv2d(48, 48, kernel_size=(3, 3), stride=(2, 2), padding=(1, 1), bias=False)
              (1): BatchNorm2d(48, eps=1e-05, momentum=0.1, affine=True, track_running_stats=True)
              (2): ReLU(inplace=True)
            )
            (1): Sequential(
              (0): Conv2d(48, 192, kernel_size=(3, 3), stride=(2, 2), padding=(1, 1), bias=False)
              (1): BatchNorm2d(192, eps=1e-05, momentum=0.1, affine=True, track_running_stats=True)
            )
          )
          (1): Sequential(
            (0): Sequential(
              (0): Conv2d(96, 192, kernel_size=(3, 3), stride=(2, 2), padding=(1, 1), bias=False)
              (1): BatchNorm2d(192, eps=1e-05, momentum=0.1, affine=True, track_running_stats=True)
            )
          )
          (2): None
        )
      )
      (relu): ReLU(inplace=True)
    )
    (1): HighResolutionModule(
      (branches): ModuleList(
        (0): Sequential(
          (0): BasicBlock(
            (conv1): Conv2d(48, 48, kernel_size=(3, 3), stride=(1, 1), padding=(1, 1), bias=False)
            (bn1): BatchNorm2d(48, eps=1e-05, momentum=0.1, affine=True, track_running_stats=True)
            (relu): ReLU(inplace=True)
            (PSA): PSA_s(
              (conv_q_right): Conv2d(48, 1, kernel_size=(1, 1), stride=(1, 1), bias=False)
              (conv_v_right): Conv2d(48, 24, kernel_size=(1, 1), stride=(1, 1), bias=False)
              (conv_up): Sequential(
                (0): Conv2d(24, 6, kernel_size=(1, 1), stride=(1, 1))
                (1): LayerNorm((6, 1, 1), eps=1e-05, elementwise_affine=True)
                (2): ReLU(inplace=True)
                (3): Conv2d(6, 48, kernel_size=(1, 1), stride=(1, 1))
              )
              (softmax_right): Softmax(dim=2)
              (sigmoid): Sigmoid()
              (conv_q_left): Conv2d(48, 24, kernel_size=(1, 1), stride=(1, 1), bias=False)
              (avg_pool): AdaptiveAvgPool2d(output_size=1)
              (conv_v_left): Conv2d(48, 24, kernel_size=(1, 1), stride=(1, 1), bias=False)
              (softmax_left): Softmax(dim=2)
            )
            (conv2): Conv2d(48, 48, kernel_size=(3, 3), stride=(1, 1), padding=(1, 1), bias=False)
            (bn2): BatchNorm2d(48, eps=1e-05, momentum=0.1, affine=True, track_running_stats=True)
          )
          (1): BasicBlock(
            (conv1): Conv2d(48, 48, kernel_size=(3, 3), stride=(1, 1), padding=(1, 1), bias=False)
            (bn1): BatchNorm2d(48, eps=1e-05, momentum=0.1, affine=True, track_running_stats=True)
            (relu): ReLU(inplace=True)
            (PSA): PSA_s(
              (conv_q_right): Conv2d(48, 1, kernel_size=(1, 1), stride=(1, 1), bias=False)
              (conv_v_right): Conv2d(48, 24, kernel_size=(1, 1), stride=(1, 1), bias=False)
              (conv_up): Sequential(
                (0): Conv2d(24, 6, kernel_size=(1, 1), stride=(1, 1))
                (1): LayerNorm((6, 1, 1), eps=1e-05, elementwise_affine=True)
                (2): ReLU(inplace=True)
                (3): Conv2d(6, 48, kernel_size=(1, 1), stride=(1, 1))
              )
              (softmax_right): Softmax(dim=2)
              (sigmoid): Sigmoid()
              (conv_q_left): Conv2d(48, 24, kernel_size=(1, 1), stride=(1, 1), bias=False)
              (avg_pool): AdaptiveAvgPool2d(output_size=1)
              (conv_v_left): Conv2d(48, 24, kernel_size=(1, 1), stride=(1, 1), bias=False)
              (softmax_left): Softmax(dim=2)
            )
            (conv2): Conv2d(48, 48, kernel_size=(3, 3), stride=(1, 1), padding=(1, 1), bias=False)
            (bn2): BatchNorm2d(48, eps=1e-05, momentum=0.1, affine=True, track_running_stats=True)
          )
          (2): BasicBlock(
            (conv1): Conv2d(48, 48, kernel_size=(3, 3), stride=(1, 1), padding=(1, 1), bias=False)
            (bn1): BatchNorm2d(48, eps=1e-05, momentum=0.1, affine=True, track_running_stats=True)
            (relu): ReLU(inplace=True)
            (PSA): PSA_s(
              (conv_q_right): Conv2d(48, 1, kernel_size=(1, 1), stride=(1, 1), bias=False)
              (conv_v_right): Conv2d(48, 24, kernel_size=(1, 1), stride=(1, 1), bias=False)
              (conv_up): Sequential(
                (0): Conv2d(24, 6, kernel_size=(1, 1), stride=(1, 1))
                (1): LayerNorm((6, 1, 1), eps=1e-05, elementwise_affine=True)
                (2): ReLU(inplace=True)
                (3): Conv2d(6, 48, kernel_size=(1, 1), stride=(1, 1))
              )
              (softmax_right): Softmax(dim=2)
              (sigmoid): Sigmoid()
              (conv_q_left): Conv2d(48, 24, kernel_size=(1, 1), stride=(1, 1), bias=False)
              (avg_pool): AdaptiveAvgPool2d(output_size=1)
              (conv_v_left): Conv2d(48, 24, kernel_size=(1, 1), stride=(1, 1), bias=False)
              (softmax_left): Softmax(dim=2)
            )
            (conv2): Conv2d(48, 48, kernel_size=(3, 3), stride=(1, 1), padding=(1, 1), bias=False)
            (bn2): BatchNorm2d(48, eps=1e-05, momentum=0.1, affine=True, track_running_stats=True)
          )
          (3): BasicBlock(
            (conv1): Conv2d(48, 48, kernel_size=(3, 3), stride=(1, 1), padding=(1, 1), bias=False)
            (bn1): BatchNorm2d(48, eps=1e-05, momentum=0.1, affine=True, track_running_stats=True)
            (relu): ReLU(inplace=True)
            (PSA): PSA_s(
              (conv_q_right): Conv2d(48, 1, kernel_size=(1, 1), stride=(1, 1), bias=False)
              (conv_v_right): Conv2d(48, 24, kernel_size=(1, 1), stride=(1, 1), bias=False)
              (conv_up): Sequential(
                (0): Conv2d(24, 6, kernel_size=(1, 1), stride=(1, 1))
                (1): LayerNorm((6, 1, 1), eps=1e-05, elementwise_affine=True)
                (2): ReLU(inplace=True)
                (3): Conv2d(6, 48, kernel_size=(1, 1), stride=(1, 1))
              )
              (softmax_right): Softmax(dim=2)
              (sigmoid): Sigmoid()
              (conv_q_left): Conv2d(48, 24, kernel_size=(1, 1), stride=(1, 1), bias=False)
              (avg_pool): AdaptiveAvgPool2d(output_size=1)
              (conv_v_left): Conv2d(48, 24, kernel_size=(1, 1), stride=(1, 1), bias=False)
              (softmax_left): Softmax(dim=2)
            )
            (conv2): Conv2d(48, 48, kernel_size=(3, 3), stride=(1, 1), padding=(1, 1), bias=False)
            (bn2): BatchNorm2d(48, eps=1e-05, momentum=0.1, affine=True, track_running_stats=True)
          )
        )
        (1): Sequential(
          (0): BasicBlock(
            (conv1): Conv2d(96, 96, kernel_size=(3, 3), stride=(1, 1), padding=(1, 1), bias=False)
            (bn1): BatchNorm2d(96, eps=1e-05, momentum=0.1, affine=True, track_running_stats=True)
            (relu): ReLU(inplace=True)
            (PSA): PSA_s(
              (conv_q_right): Conv2d(96, 1, kernel_size=(1, 1), stride=(1, 1), bias=False)
              (conv_v_right): Conv2d(96, 48, kernel_size=(1, 1), stride=(1, 1), bias=False)
              (conv_up): Sequential(
                (0): Conv2d(48, 12, kernel_size=(1, 1), stride=(1, 1))
                (1): LayerNorm((12, 1, 1), eps=1e-05, elementwise_affine=True)
                (2): ReLU(inplace=True)
                (3): Conv2d(12, 96, kernel_size=(1, 1), stride=(1, 1))
              )
              (softmax_right): Softmax(dim=2)
              (sigmoid): Sigmoid()
              (conv_q_left): Conv2d(96, 48, kernel_size=(1, 1), stride=(1, 1), bias=False)
              (avg_pool): AdaptiveAvgPool2d(output_size=1)
              (conv_v_left): Conv2d(96, 48, kernel_size=(1, 1), stride=(1, 1), bias=False)
              (softmax_left): Softmax(dim=2)
            )
            (conv2): Conv2d(96, 96, kernel_size=(3, 3), stride=(1, 1), padding=(1, 1), bias=False)
            (bn2): BatchNorm2d(96, eps=1e-05, momentum=0.1, affine=True, track_running_stats=True)
          )
          (1): BasicBlock(
            (conv1): Conv2d(96, 96, kernel_size=(3, 3), stride=(1, 1), padding=(1, 1), bias=False)
            (bn1): BatchNorm2d(96, eps=1e-05, momentum=0.1, affine=True, track_running_stats=True)
            (relu): ReLU(inplace=True)
            (PSA): PSA_s(
              (conv_q_right): Conv2d(96, 1, kernel_size=(1, 1), stride=(1, 1), bias=False)
              (conv_v_right): Conv2d(96, 48, kernel_size=(1, 1), stride=(1, 1), bias=False)
              (conv_up): Sequential(
                (0): Conv2d(48, 12, kernel_size=(1, 1), stride=(1, 1))
                (1): LayerNorm((12, 1, 1), eps=1e-05, elementwise_affine=True)
                (2): ReLU(inplace=True)
                (3): Conv2d(12, 96, kernel_size=(1, 1), stride=(1, 1))
              )
              (softmax_right): Softmax(dim=2)
              (sigmoid): Sigmoid()
              (conv_q_left): Conv2d(96, 48, kernel_size=(1, 1), stride=(1, 1), bias=False)
              (avg_pool): AdaptiveAvgPool2d(output_size=1)
              (conv_v_left): Conv2d(96, 48, kernel_size=(1, 1), stride=(1, 1), bias=False)
              (softmax_left): Softmax(dim=2)
            )
            (conv2): Conv2d(96, 96, kernel_size=(3, 3), stride=(1, 1), padding=(1, 1), bias=False)
            (bn2): BatchNorm2d(96, eps=1e-05, momentum=0.1, affine=True, track_running_stats=True)
          )
          (2): BasicBlock(
            (conv1): Conv2d(96, 96, kernel_size=(3, 3), stride=(1, 1), padding=(1, 1), bias=False)
            (bn1): BatchNorm2d(96, eps=1e-05, momentum=0.1, affine=True, track_running_stats=True)
            (relu): ReLU(inplace=True)
            (PSA): PSA_s(
              (conv_q_right): Conv2d(96, 1, kernel_size=(1, 1), stride=(1, 1), bias=False)
              (conv_v_right): Conv2d(96, 48, kernel_size=(1, 1), stride=(1, 1), bias=False)
              (conv_up): Sequential(
                (0): Conv2d(48, 12, kernel_size=(1, 1), stride=(1, 1))
                (1): LayerNorm((12, 1, 1), eps=1e-05, elementwise_affine=True)
                (2): ReLU(inplace=True)
                (3): Conv2d(12, 96, kernel_size=(1, 1), stride=(1, 1))
              )
              (softmax_right): Softmax(dim=2)
              (sigmoid): Sigmoid()
              (conv_q_left): Conv2d(96, 48, kernel_size=(1, 1), stride=(1, 1), bias=False)
              (avg_pool): AdaptiveAvgPool2d(output_size=1)
              (conv_v_left): Conv2d(96, 48, kernel_size=(1, 1), stride=(1, 1), bias=False)
              (softmax_left): Softmax(dim=2)
            )
            (conv2): Conv2d(96, 96, kernel_size=(3, 3), stride=(1, 1), padding=(1, 1), bias=False)
            (bn2): BatchNorm2d(96, eps=1e-05, momentum=0.1, affine=True, track_running_stats=True)
          )
          (3): BasicBlock(
            (conv1): Conv2d(96, 96, kernel_size=(3, 3), stride=(1, 1), padding=(1, 1), bias=False)
            (bn1): BatchNorm2d(96, eps=1e-05, momentum=0.1, affine=True, track_running_stats=True)
            (relu): ReLU(inplace=True)
            (PSA): PSA_s(
              (conv_q_right): Conv2d(96, 1, kernel_size=(1, 1), stride=(1, 1), bias=False)
              (conv_v_right): Conv2d(96, 48, kernel_size=(1, 1), stride=(1, 1), bias=False)
              (conv_up): Sequential(
                (0): Conv2d(48, 12, kernel_size=(1, 1), stride=(1, 1))
                (1): LayerNorm((12, 1, 1), eps=1e-05, elementwise_affine=True)
                (2): ReLU(inplace=True)
                (3): Conv2d(12, 96, kernel_size=(1, 1), stride=(1, 1))
              )
              (softmax_right): Softmax(dim=2)
              (sigmoid): Sigmoid()
              (conv_q_left): Conv2d(96, 48, kernel_size=(1, 1), stride=(1, 1), bias=False)
              (avg_pool): AdaptiveAvgPool2d(output_size=1)
              (conv_v_left): Conv2d(96, 48, kernel_size=(1, 1), stride=(1, 1), bias=False)
              (softmax_left): Softmax(dim=2)
            )
            (conv2): Conv2d(96, 96, kernel_size=(3, 3), stride=(1, 1), padding=(1, 1), bias=False)
            (bn2): BatchNorm2d(96, eps=1e-05, momentum=0.1, affine=True, track_running_stats=True)
          )
        )
        (2): Sequential(
          (0): BasicBlock(
            (conv1): Conv2d(192, 192, kernel_size=(3, 3), stride=(1, 1), padding=(1, 1), bias=False)
            (bn1): BatchNorm2d(192, eps=1e-05, momentum=0.1, affine=True, track_running_stats=True)
            (relu): ReLU(inplace=True)
            (PSA): PSA_s(
              (conv_q_right): Conv2d(192, 1, kernel_size=(1, 1), stride=(1, 1), bias=False)
              (conv_v_right): Conv2d(192, 96, kernel_size=(1, 1), stride=(1, 1), bias=False)
              (conv_up): Sequential(
                (0): Conv2d(96, 24, kernel_size=(1, 1), stride=(1, 1))
                (1): LayerNorm((24, 1, 1), eps=1e-05, elementwise_affine=True)
                (2): ReLU(inplace=True)
                (3): Conv2d(24, 192, kernel_size=(1, 1), stride=(1, 1))
              )
              (softmax_right): Softmax(dim=2)
              (sigmoid): Sigmoid()
              (conv_q_left): Conv2d(192, 96, kernel_size=(1, 1), stride=(1, 1), bias=False)
              (avg_pool): AdaptiveAvgPool2d(output_size=1)
              (conv_v_left): Conv2d(192, 96, kernel_size=(1, 1), stride=(1, 1), bias=False)
              (softmax_left): Softmax(dim=2)
            )
            (conv2): Conv2d(192, 192, kernel_size=(3, 3), stride=(1, 1), padding=(1, 1), bias=False)
            (bn2): BatchNorm2d(192, eps=1e-05, momentum=0.1, affine=True, track_running_stats=True)
          )
          (1): BasicBlock(
            (conv1): Conv2d(192, 192, kernel_size=(3, 3), stride=(1, 1), padding=(1, 1), bias=False)
            (bn1): BatchNorm2d(192, eps=1e-05, momentum=0.1, affine=True, track_running_stats=True)
            (relu): ReLU(inplace=True)
            (PSA): PSA_s(
              (conv_q_right): Conv2d(192, 1, kernel_size=(1, 1), stride=(1, 1), bias=False)
              (conv_v_right): Conv2d(192, 96, kernel_size=(1, 1), stride=(1, 1), bias=False)
              (conv_up): Sequential(
                (0): Conv2d(96, 24, kernel_size=(1, 1), stride=(1, 1))
                (1): LayerNorm((24, 1, 1), eps=1e-05, elementwise_affine=True)
                (2): ReLU(inplace=True)
                (3): Conv2d(24, 192, kernel_size=(1, 1), stride=(1, 1))
              )
              (softmax_right): Softmax(dim=2)
              (sigmoid): Sigmoid()
              (conv_q_left): Conv2d(192, 96, kernel_size=(1, 1), stride=(1, 1), bias=False)
              (avg_pool): AdaptiveAvgPool2d(output_size=1)
              (conv_v_left): Conv2d(192, 96, kernel_size=(1, 1), stride=(1, 1), bias=False)
              (softmax_left): Softmax(dim=2)
            )
            (conv2): Conv2d(192, 192, kernel_size=(3, 3), stride=(1, 1), padding=(1, 1), bias=False)
            (bn2): BatchNorm2d(192, eps=1e-05, momentum=0.1, affine=True, track_running_stats=True)
          )
          (2): BasicBlock(
            (conv1): Conv2d(192, 192, kernel_size=(3, 3), stride=(1, 1), padding=(1, 1), bias=False)
            (bn1): BatchNorm2d(192, eps=1e-05, momentum=0.1, affine=True, track_running_stats=True)
            (relu): ReLU(inplace=True)
            (PSA): PSA_s(
              (conv_q_right): Conv2d(192, 1, kernel_size=(1, 1), stride=(1, 1), bias=False)
              (conv_v_right): Conv2d(192, 96, kernel_size=(1, 1), stride=(1, 1), bias=False)
              (conv_up): Sequential(
                (0): Conv2d(96, 24, kernel_size=(1, 1), stride=(1, 1))
                (1): LayerNorm((24, 1, 1), eps=1e-05, elementwise_affine=True)
                (2): ReLU(inplace=True)
                (3): Conv2d(24, 192, kernel_size=(1, 1), stride=(1, 1))
              )
              (softmax_right): Softmax(dim=2)
              (sigmoid): Sigmoid()
              (conv_q_left): Conv2d(192, 96, kernel_size=(1, 1), stride=(1, 1), bias=False)
              (avg_pool): AdaptiveAvgPool2d(output_size=1)
              (conv_v_left): Conv2d(192, 96, kernel_size=(1, 1), stride=(1, 1), bias=False)
              (softmax_left): Softmax(dim=2)
            )
            (conv2): Conv2d(192, 192, kernel_size=(3, 3), stride=(1, 1), padding=(1, 1), bias=False)
            (bn2): BatchNorm2d(192, eps=1e-05, momentum=0.1, affine=True, track_running_stats=True)
          )
          (3): BasicBlock(
            (conv1): Conv2d(192, 192, kernel_size=(3, 3), stride=(1, 1), padding=(1, 1), bias=False)
            (bn1): BatchNorm2d(192, eps=1e-05, momentum=0.1, affine=True, track_running_stats=True)
            (relu): ReLU(inplace=True)
            (PSA): PSA_s(
              (conv_q_right): Conv2d(192, 1, kernel_size=(1, 1), stride=(1, 1), bias=False)
              (conv_v_right): Conv2d(192, 96, kernel_size=(1, 1), stride=(1, 1), bias=False)
              (conv_up): Sequential(
                (0): Conv2d(96, 24, kernel_size=(1, 1), stride=(1, 1))
                (1): LayerNorm((24, 1, 1), eps=1e-05, elementwise_affine=True)
                (2): ReLU(inplace=True)
                (3): Conv2d(24, 192, kernel_size=(1, 1), stride=(1, 1))
              )
              (softmax_right): Softmax(dim=2)
              (sigmoid): Sigmoid()
              (conv_q_left): Conv2d(192, 96, kernel_size=(1, 1), stride=(1, 1), bias=False)
              (avg_pool): AdaptiveAvgPool2d(output_size=1)
              (conv_v_left): Conv2d(192, 96, kernel_size=(1, 1), stride=(1, 1), bias=False)
              (softmax_left): Softmax(dim=2)
            )
            (conv2): Conv2d(192, 192, kernel_size=(3, 3), stride=(1, 1), padding=(1, 1), bias=False)
            (bn2): BatchNorm2d(192, eps=1e-05, momentum=0.1, affine=True, track_running_stats=True)
          )
        )
      )
      (fuse_layers): ModuleList(
        (0): ModuleList(
          (0): None
          (1): Sequential(
            (0): Conv2d(96, 48, kernel_size=(1, 1), stride=(1, 1), bias=False)
            (1): BatchNorm2d(48, eps=1e-05, momentum=0.1, affine=True, track_running_stats=True)
            (2): Upsample(scale_factor=2.0, mode=nearest)
          )
          (2): Sequential(
            (0): Conv2d(192, 48, kernel_size=(1, 1), stride=(1, 1), bias=False)
            (1): BatchNorm2d(48, eps=1e-05, momentum=0.1, affine=True, track_running_stats=True)
            (2): Upsample(scale_factor=4.0, mode=nearest)
          )
        )
        (1): ModuleList(
          (0): Sequential(
            (0): Sequential(
              (0): Conv2d(48, 96, kernel_size=(3, 3), stride=(2, 2), padding=(1, 1), bias=False)
              (1): BatchNorm2d(96, eps=1e-05, momentum=0.1, affine=True, track_running_stats=True)
            )
          )
          (1): None
          (2): Sequential(
            (0): Conv2d(192, 96, kernel_size=(1, 1), stride=(1, 1), bias=False)
            (1): BatchNorm2d(96, eps=1e-05, momentum=0.1, affine=True, track_running_stats=True)
            (2): Upsample(scale_factor=2.0, mode=nearest)
          )
        )
        (2): ModuleList(
          (0): Sequential(
            (0): Sequential(
              (0): Conv2d(48, 48, kernel_size=(3, 3), stride=(2, 2), padding=(1, 1), bias=False)
              (1): BatchNorm2d(48, eps=1e-05, momentum=0.1, affine=True, track_running_stats=True)
              (2): ReLU(inplace=True)
            )
            (1): Sequential(
              (0): Conv2d(48, 192, kernel_size=(3, 3), stride=(2, 2), padding=(1, 1), bias=False)
              (1): BatchNorm2d(192, eps=1e-05, momentum=0.1, affine=True, track_running_stats=True)
            )
          )
          (1): Sequential(
            (0): Sequential(
              (0): Conv2d(96, 192, kernel_size=(3, 3), stride=(2, 2), padding=(1, 1), bias=False)
              (1): BatchNorm2d(192, eps=1e-05, momentum=0.1, affine=True, track_running_stats=True)
            )
          )
          (2): None
        )
      )
      (relu): ReLU(inplace=True)
    )
    (2): HighResolutionModule(
      (branches): ModuleList(
        (0): Sequential(
          (0): BasicBlock(
            (conv1): Conv2d(48, 48, kernel_size=(3, 3), stride=(1, 1), padding=(1, 1), bias=False)
            (bn1): BatchNorm2d(48, eps=1e-05, momentum=0.1, affine=True, track_running_stats=True)
            (relu): ReLU(inplace=True)
            (PSA): PSA_s(
              (conv_q_right): Conv2d(48, 1, kernel_size=(1, 1), stride=(1, 1), bias=False)
              (conv_v_right): Conv2d(48, 24, kernel_size=(1, 1), stride=(1, 1), bias=False)
              (conv_up): Sequential(
                (0): Conv2d(24, 6, kernel_size=(1, 1), stride=(1, 1))
                (1): LayerNorm((6, 1, 1), eps=1e-05, elementwise_affine=True)
                (2): ReLU(inplace=True)
                (3): Conv2d(6, 48, kernel_size=(1, 1), stride=(1, 1))
              )
              (softmax_right): Softmax(dim=2)
              (sigmoid): Sigmoid()
              (conv_q_left): Conv2d(48, 24, kernel_size=(1, 1), stride=(1, 1), bias=False)
              (avg_pool): AdaptiveAvgPool2d(output_size=1)
              (conv_v_left): Conv2d(48, 24, kernel_size=(1, 1), stride=(1, 1), bias=False)
              (softmax_left): Softmax(dim=2)
            )
            (conv2): Conv2d(48, 48, kernel_size=(3, 3), stride=(1, 1), padding=(1, 1), bias=False)
            (bn2): BatchNorm2d(48, eps=1e-05, momentum=0.1, affine=True, track_running_stats=True)
          )
          (1): BasicBlock(
            (conv1): Conv2d(48, 48, kernel_size=(3, 3), stride=(1, 1), padding=(1, 1), bias=False)
            (bn1): BatchNorm2d(48, eps=1e-05, momentum=0.1, affine=True, track_running_stats=True)
            (relu): ReLU(inplace=True)
            (PSA): PSA_s(
              (conv_q_right): Conv2d(48, 1, kernel_size=(1, 1), stride=(1, 1), bias=False)
              (conv_v_right): Conv2d(48, 24, kernel_size=(1, 1), stride=(1, 1), bias=False)
              (conv_up): Sequential(
                (0): Conv2d(24, 6, kernel_size=(1, 1), stride=(1, 1))
                (1): LayerNorm((6, 1, 1), eps=1e-05, elementwise_affine=True)
                (2): ReLU(inplace=True)
                (3): Conv2d(6, 48, kernel_size=(1, 1), stride=(1, 1))
              )
              (softmax_right): Softmax(dim=2)
              (sigmoid): Sigmoid()
              (conv_q_left): Conv2d(48, 24, kernel_size=(1, 1), stride=(1, 1), bias=False)
              (avg_pool): AdaptiveAvgPool2d(output_size=1)
              (conv_v_left): Conv2d(48, 24, kernel_size=(1, 1), stride=(1, 1), bias=False)
              (softmax_left): Softmax(dim=2)
            )
            (conv2): Conv2d(48, 48, kernel_size=(3, 3), stride=(1, 1), padding=(1, 1), bias=False)
            (bn2): BatchNorm2d(48, eps=1e-05, momentum=0.1, affine=True, track_running_stats=True)
          )
          (2): BasicBlock(
            (conv1): Conv2d(48, 48, kernel_size=(3, 3), stride=(1, 1), padding=(1, 1), bias=False)
            (bn1): BatchNorm2d(48, eps=1e-05, momentum=0.1, affine=True, track_running_stats=True)
            (relu): ReLU(inplace=True)
            (PSA): PSA_s(
              (conv_q_right): Conv2d(48, 1, kernel_size=(1, 1), stride=(1, 1), bias=False)
              (conv_v_right): Conv2d(48, 24, kernel_size=(1, 1), stride=(1, 1), bias=False)
              (conv_up): Sequential(
                (0): Conv2d(24, 6, kernel_size=(1, 1), stride=(1, 1))
                (1): LayerNorm((6, 1, 1), eps=1e-05, elementwise_affine=True)
                (2): ReLU(inplace=True)
                (3): Conv2d(6, 48, kernel_size=(1, 1), stride=(1, 1))
              )
              (softmax_right): Softmax(dim=2)
              (sigmoid): Sigmoid()
              (conv_q_left): Conv2d(48, 24, kernel_size=(1, 1), stride=(1, 1), bias=False)
              (avg_pool): AdaptiveAvgPool2d(output_size=1)
              (conv_v_left): Conv2d(48, 24, kernel_size=(1, 1), stride=(1, 1), bias=False)
              (softmax_left): Softmax(dim=2)
            )
            (conv2): Conv2d(48, 48, kernel_size=(3, 3), stride=(1, 1), padding=(1, 1), bias=False)
            (bn2): BatchNorm2d(48, eps=1e-05, momentum=0.1, affine=True, track_running_stats=True)
          )
          (3): BasicBlock(
            (conv1): Conv2d(48, 48, kernel_size=(3, 3), stride=(1, 1), padding=(1, 1), bias=False)
            (bn1): BatchNorm2d(48, eps=1e-05, momentum=0.1, affine=True, track_running_stats=True)
            (relu): ReLU(inplace=True)
            (PSA): PSA_s(
              (conv_q_right): Conv2d(48, 1, kernel_size=(1, 1), stride=(1, 1), bias=False)
              (conv_v_right): Conv2d(48, 24, kernel_size=(1, 1), stride=(1, 1), bias=False)
              (conv_up): Sequential(
                (0): Conv2d(24, 6, kernel_size=(1, 1), stride=(1, 1))
                (1): LayerNorm((6, 1, 1), eps=1e-05, elementwise_affine=True)
                (2): ReLU(inplace=True)
                (3): Conv2d(6, 48, kernel_size=(1, 1), stride=(1, 1))
              )
              (softmax_right): Softmax(dim=2)
              (sigmoid): Sigmoid()
              (conv_q_left): Conv2d(48, 24, kernel_size=(1, 1), stride=(1, 1), bias=False)
              (avg_pool): AdaptiveAvgPool2d(output_size=1)
              (conv_v_left): Conv2d(48, 24, kernel_size=(1, 1), stride=(1, 1), bias=False)
              (softmax_left): Softmax(dim=2)
            )
            (conv2): Conv2d(48, 48, kernel_size=(3, 3), stride=(1, 1), padding=(1, 1), bias=False)
            (bn2): BatchNorm2d(48, eps=1e-05, momentum=0.1, affine=True, track_running_stats=True)
          )
        )
        (1): Sequential(
          (0): BasicBlock(
            (conv1): Conv2d(96, 96, kernel_size=(3, 3), stride=(1, 1), padding=(1, 1), bias=False)
            (bn1): BatchNorm2d(96, eps=1e-05, momentum=0.1, affine=True, track_running_stats=True)
            (relu): ReLU(inplace=True)
            (PSA): PSA_s(
              (conv_q_right): Conv2d(96, 1, kernel_size=(1, 1), stride=(1, 1), bias=False)
              (conv_v_right): Conv2d(96, 48, kernel_size=(1, 1), stride=(1, 1), bias=False)
              (conv_up): Sequential(
                (0): Conv2d(48, 12, kernel_size=(1, 1), stride=(1, 1))
                (1): LayerNorm((12, 1, 1), eps=1e-05, elementwise_affine=True)
                (2): ReLU(inplace=True)
                (3): Conv2d(12, 96, kernel_size=(1, 1), stride=(1, 1))
              )
              (softmax_right): Softmax(dim=2)
              (sigmoid): Sigmoid()
              (conv_q_left): Conv2d(96, 48, kernel_size=(1, 1), stride=(1, 1), bias=False)
              (avg_pool): AdaptiveAvgPool2d(output_size=1)
              (conv_v_left): Conv2d(96, 48, kernel_size=(1, 1), stride=(1, 1), bias=False)
              (softmax_left): Softmax(dim=2)
            )
            (conv2): Conv2d(96, 96, kernel_size=(3, 3), stride=(1, 1), padding=(1, 1), bias=False)
            (bn2): BatchNorm2d(96, eps=1e-05, momentum=0.1, affine=True, track_running_stats=True)
          )
          (1): BasicBlock(
            (conv1): Conv2d(96, 96, kernel_size=(3, 3), stride=(1, 1), padding=(1, 1), bias=False)
            (bn1): BatchNorm2d(96, eps=1e-05, momentum=0.1, affine=True, track_running_stats=True)
            (relu): ReLU(inplace=True)
            (PSA): PSA_s(
              (conv_q_right): Conv2d(96, 1, kernel_size=(1, 1), stride=(1, 1), bias=False)
              (conv_v_right): Conv2d(96, 48, kernel_size=(1, 1), stride=(1, 1), bias=False)
              (conv_up): Sequential(
                (0): Conv2d(48, 12, kernel_size=(1, 1), stride=(1, 1))
                (1): LayerNorm((12, 1, 1), eps=1e-05, elementwise_affine=True)
                (2): ReLU(inplace=True)
                (3): Conv2d(12, 96, kernel_size=(1, 1), stride=(1, 1))
              )
              (softmax_right): Softmax(dim=2)
              (sigmoid): Sigmoid()
              (conv_q_left): Conv2d(96, 48, kernel_size=(1, 1), stride=(1, 1), bias=False)
              (avg_pool): AdaptiveAvgPool2d(output_size=1)
              (conv_v_left): Conv2d(96, 48, kernel_size=(1, 1), stride=(1, 1), bias=False)
              (softmax_left): Softmax(dim=2)
            )
            (conv2): Conv2d(96, 96, kernel_size=(3, 3), stride=(1, 1), padding=(1, 1), bias=False)
            (bn2): BatchNorm2d(96, eps=1e-05, momentum=0.1, affine=True, track_running_stats=True)
          )
          (2): BasicBlock(
            (conv1): Conv2d(96, 96, kernel_size=(3, 3), stride=(1, 1), padding=(1, 1), bias=False)
            (bn1): BatchNorm2d(96, eps=1e-05, momentum=0.1, affine=True, track_running_stats=True)
            (relu): ReLU(inplace=True)
            (PSA): PSA_s(
              (conv_q_right): Conv2d(96, 1, kernel_size=(1, 1), stride=(1, 1), bias=False)
              (conv_v_right): Conv2d(96, 48, kernel_size=(1, 1), stride=(1, 1), bias=False)
              (conv_up): Sequential(
                (0): Conv2d(48, 12, kernel_size=(1, 1), stride=(1, 1))
                (1): LayerNorm((12, 1, 1), eps=1e-05, elementwise_affine=True)
                (2): ReLU(inplace=True)
                (3): Conv2d(12, 96, kernel_size=(1, 1), stride=(1, 1))
              )
              (softmax_right): Softmax(dim=2)
              (sigmoid): Sigmoid()
              (conv_q_left): Conv2d(96, 48, kernel_size=(1, 1), stride=(1, 1), bias=False)
              (avg_pool): AdaptiveAvgPool2d(output_size=1)
              (conv_v_left): Conv2d(96, 48, kernel_size=(1, 1), stride=(1, 1), bias=False)
              (softmax_left): Softmax(dim=2)
            )
            (conv2): Conv2d(96, 96, kernel_size=(3, 3), stride=(1, 1), padding=(1, 1), bias=False)
            (bn2): BatchNorm2d(96, eps=1e-05, momentum=0.1, affine=True, track_running_stats=True)
          )
          (3): BasicBlock(
            (conv1): Conv2d(96, 96, kernel_size=(3, 3), stride=(1, 1), padding=(1, 1), bias=False)
            (bn1): BatchNorm2d(96, eps=1e-05, momentum=0.1, affine=True, track_running_stats=True)
            (relu): ReLU(inplace=True)
            (PSA): PSA_s(
              (conv_q_right): Conv2d(96, 1, kernel_size=(1, 1), stride=(1, 1), bias=False)
              (conv_v_right): Conv2d(96, 48, kernel_size=(1, 1), stride=(1, 1), bias=False)
              (conv_up): Sequential(
                (0): Conv2d(48, 12, kernel_size=(1, 1), stride=(1, 1))
                (1): LayerNorm((12, 1, 1), eps=1e-05, elementwise_affine=True)
                (2): ReLU(inplace=True)
                (3): Conv2d(12, 96, kernel_size=(1, 1), stride=(1, 1))
              )
              (softmax_right): Softmax(dim=2)
              (sigmoid): Sigmoid()
              (conv_q_left): Conv2d(96, 48, kernel_size=(1, 1), stride=(1, 1), bias=False)
              (avg_pool): AdaptiveAvgPool2d(output_size=1)
              (conv_v_left): Conv2d(96, 48, kernel_size=(1, 1), stride=(1, 1), bias=False)
              (softmax_left): Softmax(dim=2)
            )
            (conv2): Conv2d(96, 96, kernel_size=(3, 3), stride=(1, 1), padding=(1, 1), bias=False)
            (bn2): BatchNorm2d(96, eps=1e-05, momentum=0.1, affine=True, track_running_stats=True)
          )
        )
        (2): Sequential(
          (0): BasicBlock(
            (conv1): Conv2d(192, 192, kernel_size=(3, 3), stride=(1, 1), padding=(1, 1), bias=False)
            (bn1): BatchNorm2d(192, eps=1e-05, momentum=0.1, affine=True, track_running_stats=True)
            (relu): ReLU(inplace=True)
            (PSA): PSA_s(
              (conv_q_right): Conv2d(192, 1, kernel_size=(1, 1), stride=(1, 1), bias=False)
              (conv_v_right): Conv2d(192, 96, kernel_size=(1, 1), stride=(1, 1), bias=False)
              (conv_up): Sequential(
                (0): Conv2d(96, 24, kernel_size=(1, 1), stride=(1, 1))
                (1): LayerNorm((24, 1, 1), eps=1e-05, elementwise_affine=True)
                (2): ReLU(inplace=True)
                (3): Conv2d(24, 192, kernel_size=(1, 1), stride=(1, 1))
              )
              (softmax_right): Softmax(dim=2)
              (sigmoid): Sigmoid()
              (conv_q_left): Conv2d(192, 96, kernel_size=(1, 1), stride=(1, 1), bias=False)
              (avg_pool): AdaptiveAvgPool2d(output_size=1)
              (conv_v_left): Conv2d(192, 96, kernel_size=(1, 1), stride=(1, 1), bias=False)
              (softmax_left): Softmax(dim=2)
            )
            (conv2): Conv2d(192, 192, kernel_size=(3, 3), stride=(1, 1), padding=(1, 1), bias=False)
            (bn2): BatchNorm2d(192, eps=1e-05, momentum=0.1, affine=True, track_running_stats=True)
          )
          (1): BasicBlock(
            (conv1): Conv2d(192, 192, kernel_size=(3, 3), stride=(1, 1), padding=(1, 1), bias=False)
            (bn1): BatchNorm2d(192, eps=1e-05, momentum=0.1, affine=True, track_running_stats=True)
            (relu): ReLU(inplace=True)
            (PSA): PSA_s(
              (conv_q_right): Conv2d(192, 1, kernel_size=(1, 1), stride=(1, 1), bias=False)
              (conv_v_right): Conv2d(192, 96, kernel_size=(1, 1), stride=(1, 1), bias=False)
              (conv_up): Sequential(
                (0): Conv2d(96, 24, kernel_size=(1, 1), stride=(1, 1))
                (1): LayerNorm((24, 1, 1), eps=1e-05, elementwise_affine=True)
                (2): ReLU(inplace=True)
                (3): Conv2d(24, 192, kernel_size=(1, 1), stride=(1, 1))
              )
              (softmax_right): Softmax(dim=2)
              (sigmoid): Sigmoid()
              (conv_q_left): Conv2d(192, 96, kernel_size=(1, 1), stride=(1, 1), bias=False)
              (avg_pool): AdaptiveAvgPool2d(output_size=1)
              (conv_v_left): Conv2d(192, 96, kernel_size=(1, 1), stride=(1, 1), bias=False)
              (softmax_left): Softmax(dim=2)
            )
            (conv2): Conv2d(192, 192, kernel_size=(3, 3), stride=(1, 1), padding=(1, 1), bias=False)
            (bn2): BatchNorm2d(192, eps=1e-05, momentum=0.1, affine=True, track_running_stats=True)
          )
          (2): BasicBlock(
            (conv1): Conv2d(192, 192, kernel_size=(3, 3), stride=(1, 1), padding=(1, 1), bias=False)
            (bn1): BatchNorm2d(192, eps=1e-05, momentum=0.1, affine=True, track_running_stats=True)
            (relu): ReLU(inplace=True)
            (PSA): PSA_s(
              (conv_q_right): Conv2d(192, 1, kernel_size=(1, 1), stride=(1, 1), bias=False)
              (conv_v_right): Conv2d(192, 96, kernel_size=(1, 1), stride=(1, 1), bias=False)
              (conv_up): Sequential(
                (0): Conv2d(96, 24, kernel_size=(1, 1), stride=(1, 1))
                (1): LayerNorm((24, 1, 1), eps=1e-05, elementwise_affine=True)
                (2): ReLU(inplace=True)
                (3): Conv2d(24, 192, kernel_size=(1, 1), stride=(1, 1))
              )
              (softmax_right): Softmax(dim=2)
              (sigmoid): Sigmoid()
              (conv_q_left): Conv2d(192, 96, kernel_size=(1, 1), stride=(1, 1), bias=False)
              (avg_pool): AdaptiveAvgPool2d(output_size=1)
              (conv_v_left): Conv2d(192, 96, kernel_size=(1, 1), stride=(1, 1), bias=False)
              (softmax_left): Softmax(dim=2)
            )
            (conv2): Conv2d(192, 192, kernel_size=(3, 3), stride=(1, 1), padding=(1, 1), bias=False)
            (bn2): BatchNorm2d(192, eps=1e-05, momentum=0.1, affine=True, track_running_stats=True)
          )
          (3): BasicBlock(
            (conv1): Conv2d(192, 192, kernel_size=(3, 3), stride=(1, 1), padding=(1, 1), bias=False)
            (bn1): BatchNorm2d(192, eps=1e-05, momentum=0.1, affine=True, track_running_stats=True)
            (relu): ReLU(inplace=True)
            (PSA): PSA_s(
              (conv_q_right): Conv2d(192, 1, kernel_size=(1, 1), stride=(1, 1), bias=False)
              (conv_v_right): Conv2d(192, 96, kernel_size=(1, 1), stride=(1, 1), bias=False)
              (conv_up): Sequential(
                (0): Conv2d(96, 24, kernel_size=(1, 1), stride=(1, 1))
                (1): LayerNorm((24, 1, 1), eps=1e-05, elementwise_affine=True)
                (2): ReLU(inplace=True)
                (3): Conv2d(24, 192, kernel_size=(1, 1), stride=(1, 1))
              )
              (softmax_right): Softmax(dim=2)
              (sigmoid): Sigmoid()
              (conv_q_left): Conv2d(192, 96, kernel_size=(1, 1), stride=(1, 1), bias=False)
              (avg_pool): AdaptiveAvgPool2d(output_size=1)
              (conv_v_left): Conv2d(192, 96, kernel_size=(1, 1), stride=(1, 1), bias=False)
              (softmax_left): Softmax(dim=2)
            )
            (conv2): Conv2d(192, 192, kernel_size=(3, 3), stride=(1, 1), padding=(1, 1), bias=False)
            (bn2): BatchNorm2d(192, eps=1e-05, momentum=0.1, affine=True, track_running_stats=True)
          )
        )
      )
      (fuse_layers): ModuleList(
        (0): ModuleList(
          (0): None
          (1): Sequential(
            (0): Conv2d(96, 48, kernel_size=(1, 1), stride=(1, 1), bias=False)
            (1): BatchNorm2d(48, eps=1e-05, momentum=0.1, affine=True, track_running_stats=True)
            (2): Upsample(scale_factor=2.0, mode=nearest)
          )
          (2): Sequential(
            (0): Conv2d(192, 48, kernel_size=(1, 1), stride=(1, 1), bias=False)
            (1): BatchNorm2d(48, eps=1e-05, momentum=0.1, affine=True, track_running_stats=True)
            (2): Upsample(scale_factor=4.0, mode=nearest)
          )
        )
        (1): ModuleList(
          (0): Sequential(
            (0): Sequential(
              (0): Conv2d(48, 96, kernel_size=(3, 3), stride=(2, 2), padding=(1, 1), bias=False)
              (1): BatchNorm2d(96, eps=1e-05, momentum=0.1, affine=True, track_running_stats=True)
            )
          )
          (1): None
          (2): Sequential(
            (0): Conv2d(192, 96, kernel_size=(1, 1), stride=(1, 1), bias=False)
            (1): BatchNorm2d(96, eps=1e-05, momentum=0.1, affine=True, track_running_stats=True)
            (2): Upsample(scale_factor=2.0, mode=nearest)
          )
        )
        (2): ModuleList(
          (0): Sequential(
            (0): Sequential(
              (0): Conv2d(48, 48, kernel_size=(3, 3), stride=(2, 2), padding=(1, 1), bias=False)
              (1): BatchNorm2d(48, eps=1e-05, momentum=0.1, affine=True, track_running_stats=True)
              (2): ReLU(inplace=True)
            )
            (1): Sequential(
              (0): Conv2d(48, 192, kernel_size=(3, 3), stride=(2, 2), padding=(1, 1), bias=False)
              (1): BatchNorm2d(192, eps=1e-05, momentum=0.1, affine=True, track_running_stats=True)
            )
          )
          (1): Sequential(
            (0): Sequential(
              (0): Conv2d(96, 192, kernel_size=(3, 3), stride=(2, 2), padding=(1, 1), bias=False)
              (1): BatchNorm2d(192, eps=1e-05, momentum=0.1, affine=True, track_running_stats=True)
            )
          )
          (2): None
        )
      )
      (relu): ReLU(inplace=True)
    )
    (3): HighResolutionModule(
      (branches): ModuleList(
        (0): Sequential(
          (0): BasicBlock(
            (conv1): Conv2d(48, 48, kernel_size=(3, 3), stride=(1, 1), padding=(1, 1), bias=False)
            (bn1): BatchNorm2d(48, eps=1e-05, momentum=0.1, affine=True, track_running_stats=True)
            (relu): ReLU(inplace=True)
            (PSA): PSA_s(
              (conv_q_right): Conv2d(48, 1, kernel_size=(1, 1), stride=(1, 1), bias=False)
              (conv_v_right): Conv2d(48, 24, kernel_size=(1, 1), stride=(1, 1), bias=False)
              (conv_up): Sequential(
                (0): Conv2d(24, 6, kernel_size=(1, 1), stride=(1, 1))
                (1): LayerNorm((6, 1, 1), eps=1e-05, elementwise_affine=True)
                (2): ReLU(inplace=True)
                (3): Conv2d(6, 48, kernel_size=(1, 1), stride=(1, 1))
              )
              (softmax_right): Softmax(dim=2)
              (sigmoid): Sigmoid()
              (conv_q_left): Conv2d(48, 24, kernel_size=(1, 1), stride=(1, 1), bias=False)
              (avg_pool): AdaptiveAvgPool2d(output_size=1)
              (conv_v_left): Conv2d(48, 24, kernel_size=(1, 1), stride=(1, 1), bias=False)
              (softmax_left): Softmax(dim=2)
            )
            (conv2): Conv2d(48, 48, kernel_size=(3, 3), stride=(1, 1), padding=(1, 1), bias=False)
            (bn2): BatchNorm2d(48, eps=1e-05, momentum=0.1, affine=True, track_running_stats=True)
          )
          (1): BasicBlock(
            (conv1): Conv2d(48, 48, kernel_size=(3, 3), stride=(1, 1), padding=(1, 1), bias=False)
            (bn1): BatchNorm2d(48, eps=1e-05, momentum=0.1, affine=True, track_running_stats=True)
            (relu): ReLU(inplace=True)
            (PSA): PSA_s(
              (conv_q_right): Conv2d(48, 1, kernel_size=(1, 1), stride=(1, 1), bias=False)
              (conv_v_right): Conv2d(48, 24, kernel_size=(1, 1), stride=(1, 1), bias=False)
              (conv_up): Sequential(
                (0): Conv2d(24, 6, kernel_size=(1, 1), stride=(1, 1))
                (1): LayerNorm((6, 1, 1), eps=1e-05, elementwise_affine=True)
                (2): ReLU(inplace=True)
                (3): Conv2d(6, 48, kernel_size=(1, 1), stride=(1, 1))
              )
              (softmax_right): Softmax(dim=2)
              (sigmoid): Sigmoid()
              (conv_q_left): Conv2d(48, 24, kernel_size=(1, 1), stride=(1, 1), bias=False)
              (avg_pool): AdaptiveAvgPool2d(output_size=1)
              (conv_v_left): Conv2d(48, 24, kernel_size=(1, 1), stride=(1, 1), bias=False)
              (softmax_left): Softmax(dim=2)
            )
            (conv2): Conv2d(48, 48, kernel_size=(3, 3), stride=(1, 1), padding=(1, 1), bias=False)
            (bn2): BatchNorm2d(48, eps=1e-05, momentum=0.1, affine=True, track_running_stats=True)
          )
          (2): BasicBlock(
            (conv1): Conv2d(48, 48, kernel_size=(3, 3), stride=(1, 1), padding=(1, 1), bias=False)
            (bn1): BatchNorm2d(48, eps=1e-05, momentum=0.1, affine=True, track_running_stats=True)
            (relu): ReLU(inplace=True)
            (PSA): PSA_s(
              (conv_q_right): Conv2d(48, 1, kernel_size=(1, 1), stride=(1, 1), bias=False)
              (conv_v_right): Conv2d(48, 24, kernel_size=(1, 1), stride=(1, 1), bias=False)
              (conv_up): Sequential(
                (0): Conv2d(24, 6, kernel_size=(1, 1), stride=(1, 1))
                (1): LayerNorm((6, 1, 1), eps=1e-05, elementwise_affine=True)
                (2): ReLU(inplace=True)
                (3): Conv2d(6, 48, kernel_size=(1, 1), stride=(1, 1))
              )
              (softmax_right): Softmax(dim=2)
              (sigmoid): Sigmoid()
              (conv_q_left): Conv2d(48, 24, kernel_size=(1, 1), stride=(1, 1), bias=False)
              (avg_pool): AdaptiveAvgPool2d(output_size=1)
              (conv_v_left): Conv2d(48, 24, kernel_size=(1, 1), stride=(1, 1), bias=False)
              (softmax_left): Softmax(dim=2)
            )
            (conv2): Conv2d(48, 48, kernel_size=(3, 3), stride=(1, 1), padding=(1, 1), bias=False)
            (bn2): BatchNorm2d(48, eps=1e-05, momentum=0.1, affine=True, track_running_stats=True)
          )
          (3): BasicBlock(
            (conv1): Conv2d(48, 48, kernel_size=(3, 3), stride=(1, 1), padding=(1, 1), bias=False)
            (bn1): BatchNorm2d(48, eps=1e-05, momentum=0.1, affine=True, track_running_stats=True)
            (relu): ReLU(inplace=True)
            (PSA): PSA_s(
              (conv_q_right): Conv2d(48, 1, kernel_size=(1, 1), stride=(1, 1), bias=False)
              (conv_v_right): Conv2d(48, 24, kernel_size=(1, 1), stride=(1, 1), bias=False)
              (conv_up): Sequential(
                (0): Conv2d(24, 6, kernel_size=(1, 1), stride=(1, 1))
                (1): LayerNorm((6, 1, 1), eps=1e-05, elementwise_affine=True)
                (2): ReLU(inplace=True)
                (3): Conv2d(6, 48, kernel_size=(1, 1), stride=(1, 1))
              )
              (softmax_right): Softmax(dim=2)
              (sigmoid): Sigmoid()
              (conv_q_left): Conv2d(48, 24, kernel_size=(1, 1), stride=(1, 1), bias=False)
              (avg_pool): AdaptiveAvgPool2d(output_size=1)
              (conv_v_left): Conv2d(48, 24, kernel_size=(1, 1), stride=(1, 1), bias=False)
              (softmax_left): Softmax(dim=2)
            )
            (conv2): Conv2d(48, 48, kernel_size=(3, 3), stride=(1, 1), padding=(1, 1), bias=False)
            (bn2): BatchNorm2d(48, eps=1e-05, momentum=0.1, affine=True, track_running_stats=True)
          )
        )
        (1): Sequential(
          (0): BasicBlock(
            (conv1): Conv2d(96, 96, kernel_size=(3, 3), stride=(1, 1), padding=(1, 1), bias=False)
            (bn1): BatchNorm2d(96, eps=1e-05, momentum=0.1, affine=True, track_running_stats=True)
            (relu): ReLU(inplace=True)
            (PSA): PSA_s(
              (conv_q_right): Conv2d(96, 1, kernel_size=(1, 1), stride=(1, 1), bias=False)
              (conv_v_right): Conv2d(96, 48, kernel_size=(1, 1), stride=(1, 1), bias=False)
              (conv_up): Sequential(
                (0): Conv2d(48, 12, kernel_size=(1, 1), stride=(1, 1))
                (1): LayerNorm((12, 1, 1), eps=1e-05, elementwise_affine=True)
                (2): ReLU(inplace=True)
                (3): Conv2d(12, 96, kernel_size=(1, 1), stride=(1, 1))
              )
              (softmax_right): Softmax(dim=2)
              (sigmoid): Sigmoid()
              (conv_q_left): Conv2d(96, 48, kernel_size=(1, 1), stride=(1, 1), bias=False)
              (avg_pool): AdaptiveAvgPool2d(output_size=1)
              (conv_v_left): Conv2d(96, 48, kernel_size=(1, 1), stride=(1, 1), bias=False)
              (softmax_left): Softmax(dim=2)
            )
            (conv2): Conv2d(96, 96, kernel_size=(3, 3), stride=(1, 1), padding=(1, 1), bias=False)
            (bn2): BatchNorm2d(96, eps=1e-05, momentum=0.1, affine=True, track_running_stats=True)
          )
          (1): BasicBlock(
            (conv1): Conv2d(96, 96, kernel_size=(3, 3), stride=(1, 1), padding=(1, 1), bias=False)
            (bn1): BatchNorm2d(96, eps=1e-05, momentum=0.1, affine=True, track_running_stats=True)
            (relu): ReLU(inplace=True)
            (PSA): PSA_s(
              (conv_q_right): Conv2d(96, 1, kernel_size=(1, 1), stride=(1, 1), bias=False)
              (conv_v_right): Conv2d(96, 48, kernel_size=(1, 1), stride=(1, 1), bias=False)
              (conv_up): Sequential(
                (0): Conv2d(48, 12, kernel_size=(1, 1), stride=(1, 1))
                (1): LayerNorm((12, 1, 1), eps=1e-05, elementwise_affine=True)
                (2): ReLU(inplace=True)
                (3): Conv2d(12, 96, kernel_size=(1, 1), stride=(1, 1))
              )
              (softmax_right): Softmax(dim=2)
              (sigmoid): Sigmoid()
              (conv_q_left): Conv2d(96, 48, kernel_size=(1, 1), stride=(1, 1), bias=False)
              (avg_pool): AdaptiveAvgPool2d(output_size=1)
              (conv_v_left): Conv2d(96, 48, kernel_size=(1, 1), stride=(1, 1), bias=False)
              (softmax_left): Softmax(dim=2)
            )
            (conv2): Conv2d(96, 96, kernel_size=(3, 3), stride=(1, 1), padding=(1, 1), bias=False)
            (bn2): BatchNorm2d(96, eps=1e-05, momentum=0.1, affine=True, track_running_stats=True)
          )
          (2): BasicBlock(
            (conv1): Conv2d(96, 96, kernel_size=(3, 3), stride=(1, 1), padding=(1, 1), bias=False)
            (bn1): BatchNorm2d(96, eps=1e-05, momentum=0.1, affine=True, track_running_stats=True)
            (relu): ReLU(inplace=True)
            (PSA): PSA_s(
              (conv_q_right): Conv2d(96, 1, kernel_size=(1, 1), stride=(1, 1), bias=False)
              (conv_v_right): Conv2d(96, 48, kernel_size=(1, 1), stride=(1, 1), bias=False)
              (conv_up): Sequential(
                (0): Conv2d(48, 12, kernel_size=(1, 1), stride=(1, 1))
                (1): LayerNorm((12, 1, 1), eps=1e-05, elementwise_affine=True)
                (2): ReLU(inplace=True)
                (3): Conv2d(12, 96, kernel_size=(1, 1), stride=(1, 1))
              )
              (softmax_right): Softmax(dim=2)
              (sigmoid): Sigmoid()
              (conv_q_left): Conv2d(96, 48, kernel_size=(1, 1), stride=(1, 1), bias=False)
              (avg_pool): AdaptiveAvgPool2d(output_size=1)
              (conv_v_left): Conv2d(96, 48, kernel_size=(1, 1), stride=(1, 1), bias=False)
              (softmax_left): Softmax(dim=2)
            )
            (conv2): Conv2d(96, 96, kernel_size=(3, 3), stride=(1, 1), padding=(1, 1), bias=False)
            (bn2): BatchNorm2d(96, eps=1e-05, momentum=0.1, affine=True, track_running_stats=True)
          )
          (3): BasicBlock(
            (conv1): Conv2d(96, 96, kernel_size=(3, 3), stride=(1, 1), padding=(1, 1), bias=False)
            (bn1): BatchNorm2d(96, eps=1e-05, momentum=0.1, affine=True, track_running_stats=True)
            (relu): ReLU(inplace=True)
            (PSA): PSA_s(
              (conv_q_right): Conv2d(96, 1, kernel_size=(1, 1), stride=(1, 1), bias=False)
              (conv_v_right): Conv2d(96, 48, kernel_size=(1, 1), stride=(1, 1), bias=False)
              (conv_up): Sequential(
                (0): Conv2d(48, 12, kernel_size=(1, 1), stride=(1, 1))
                (1): LayerNorm((12, 1, 1), eps=1e-05, elementwise_affine=True)
                (2): ReLU(inplace=True)
                (3): Conv2d(12, 96, kernel_size=(1, 1), stride=(1, 1))
              )
              (softmax_right): Softmax(dim=2)
              (sigmoid): Sigmoid()
              (conv_q_left): Conv2d(96, 48, kernel_size=(1, 1), stride=(1, 1), bias=False)
              (avg_pool): AdaptiveAvgPool2d(output_size=1)
              (conv_v_left): Conv2d(96, 48, kernel_size=(1, 1), stride=(1, 1), bias=False)
              (softmax_left): Softmax(dim=2)
            )
            (conv2): Conv2d(96, 96, kernel_size=(3, 3), stride=(1, 1), padding=(1, 1), bias=False)
            (bn2): BatchNorm2d(96, eps=1e-05, momentum=0.1, affine=True, track_running_stats=True)
          )
        )
        (2): Sequential(
          (0): BasicBlock(
            (conv1): Conv2d(192, 192, kernel_size=(3, 3), stride=(1, 1), padding=(1, 1), bias=False)
            (bn1): BatchNorm2d(192, eps=1e-05, momentum=0.1, affine=True, track_running_stats=True)
            (relu): ReLU(inplace=True)
            (PSA): PSA_s(
              (conv_q_right): Conv2d(192, 1, kernel_size=(1, 1), stride=(1, 1), bias=False)
              (conv_v_right): Conv2d(192, 96, kernel_size=(1, 1), stride=(1, 1), bias=False)
              (conv_up): Sequential(
                (0): Conv2d(96, 24, kernel_size=(1, 1), stride=(1, 1))
                (1): LayerNorm((24, 1, 1), eps=1e-05, elementwise_affine=True)
                (2): ReLU(inplace=True)
                (3): Conv2d(24, 192, kernel_size=(1, 1), stride=(1, 1))
              )
              (softmax_right): Softmax(dim=2)
              (sigmoid): Sigmoid()
              (conv_q_left): Conv2d(192, 96, kernel_size=(1, 1), stride=(1, 1), bias=False)
              (avg_pool): AdaptiveAvgPool2d(output_size=1)
              (conv_v_left): Conv2d(192, 96, kernel_size=(1, 1), stride=(1, 1), bias=False)
              (softmax_left): Softmax(dim=2)
            )
            (conv2): Conv2d(192, 192, kernel_size=(3, 3), stride=(1, 1), padding=(1, 1), bias=False)
            (bn2): BatchNorm2d(192, eps=1e-05, momentum=0.1, affine=True, track_running_stats=True)
          )
          (1): BasicBlock(
            (conv1): Conv2d(192, 192, kernel_size=(3, 3), stride=(1, 1), padding=(1, 1), bias=False)
            (bn1): BatchNorm2d(192, eps=1e-05, momentum=0.1, affine=True, track_running_stats=True)
            (relu): ReLU(inplace=True)
            (PSA): PSA_s(
              (conv_q_right): Conv2d(192, 1, kernel_size=(1, 1), stride=(1, 1), bias=False)
              (conv_v_right): Conv2d(192, 96, kernel_size=(1, 1), stride=(1, 1), bias=False)
              (conv_up): Sequential(
                (0): Conv2d(96, 24, kernel_size=(1, 1), stride=(1, 1))
                (1): LayerNorm((24, 1, 1), eps=1e-05, elementwise_affine=True)
                (2): ReLU(inplace=True)
                (3): Conv2d(24, 192, kernel_size=(1, 1), stride=(1, 1))
              )
              (softmax_right): Softmax(dim=2)
              (sigmoid): Sigmoid()
              (conv_q_left): Conv2d(192, 96, kernel_size=(1, 1), stride=(1, 1), bias=False)
              (avg_pool): AdaptiveAvgPool2d(output_size=1)
              (conv_v_left): Conv2d(192, 96, kernel_size=(1, 1), stride=(1, 1), bias=False)
              (softmax_left): Softmax(dim=2)
            )
            (conv2): Conv2d(192, 192, kernel_size=(3, 3), stride=(1, 1), padding=(1, 1), bias=False)
            (bn2): BatchNorm2d(192, eps=1e-05, momentum=0.1, affine=True, track_running_stats=True)
          )
          (2): BasicBlock(
            (conv1): Conv2d(192, 192, kernel_size=(3, 3), stride=(1, 1), padding=(1, 1), bias=False)
            (bn1): BatchNorm2d(192, eps=1e-05, momentum=0.1, affine=True, track_running_stats=True)
            (relu): ReLU(inplace=True)
            (PSA): PSA_s(
              (conv_q_right): Conv2d(192, 1, kernel_size=(1, 1), stride=(1, 1), bias=False)
              (conv_v_right): Conv2d(192, 96, kernel_size=(1, 1), stride=(1, 1), bias=False)
              (conv_up): Sequential(
                (0): Conv2d(96, 24, kernel_size=(1, 1), stride=(1, 1))
                (1): LayerNorm((24, 1, 1), eps=1e-05, elementwise_affine=True)
                (2): ReLU(inplace=True)
                (3): Conv2d(24, 192, kernel_size=(1, 1), stride=(1, 1))
              )
              (softmax_right): Softmax(dim=2)
              (sigmoid): Sigmoid()
              (conv_q_left): Conv2d(192, 96, kernel_size=(1, 1), stride=(1, 1), bias=False)
              (avg_pool): AdaptiveAvgPool2d(output_size=1)
              (conv_v_left): Conv2d(192, 96, kernel_size=(1, 1), stride=(1, 1), bias=False)
              (softmax_left): Softmax(dim=2)
            )
            (conv2): Conv2d(192, 192, kernel_size=(3, 3), stride=(1, 1), padding=(1, 1), bias=False)
            (bn2): BatchNorm2d(192, eps=1e-05, momentum=0.1, affine=True, track_running_stats=True)
          )
          (3): BasicBlock(
            (conv1): Conv2d(192, 192, kernel_size=(3, 3), stride=(1, 1), padding=(1, 1), bias=False)
            (bn1): BatchNorm2d(192, eps=1e-05, momentum=0.1, affine=True, track_running_stats=True)
            (relu): ReLU(inplace=True)
            (PSA): PSA_s(
              (conv_q_right): Conv2d(192, 1, kernel_size=(1, 1), stride=(1, 1), bias=False)
              (conv_v_right): Conv2d(192, 96, kernel_size=(1, 1), stride=(1, 1), bias=False)
              (conv_up): Sequential(
                (0): Conv2d(96, 24, kernel_size=(1, 1), stride=(1, 1))
                (1): LayerNorm((24, 1, 1), eps=1e-05, elementwise_affine=True)
                (2): ReLU(inplace=True)
                (3): Conv2d(24, 192, kernel_size=(1, 1), stride=(1, 1))
              )
              (softmax_right): Softmax(dim=2)
              (sigmoid): Sigmoid()
              (conv_q_left): Conv2d(192, 96, kernel_size=(1, 1), stride=(1, 1), bias=False)
              (avg_pool): AdaptiveAvgPool2d(output_size=1)
              (conv_v_left): Conv2d(192, 96, kernel_size=(1, 1), stride=(1, 1), bias=False)
              (softmax_left): Softmax(dim=2)
            )
            (conv2): Conv2d(192, 192, kernel_size=(3, 3), stride=(1, 1), padding=(1, 1), bias=False)
            (bn2): BatchNorm2d(192, eps=1e-05, momentum=0.1, affine=True, track_running_stats=True)
          )
        )
      )
      (fuse_layers): ModuleList(
        (0): ModuleList(
          (0): None
          (1): Sequential(
            (0): Conv2d(96, 48, kernel_size=(1, 1), stride=(1, 1), bias=False)
            (1): BatchNorm2d(48, eps=1e-05, momentum=0.1, affine=True, track_running_stats=True)
            (2): Upsample(scale_factor=2.0, mode=nearest)
          )
          (2): Sequential(
            (0): Conv2d(192, 48, kernel_size=(1, 1), stride=(1, 1), bias=False)
            (1): BatchNorm2d(48, eps=1e-05, momentum=0.1, affine=True, track_running_stats=True)
            (2): Upsample(scale_factor=4.0, mode=nearest)
          )
        )
        (1): ModuleList(
          (0): Sequential(
            (0): Sequential(
              (0): Conv2d(48, 96, kernel_size=(3, 3), stride=(2, 2), padding=(1, 1), bias=False)
              (1): BatchNorm2d(96, eps=1e-05, momentum=0.1, affine=True, track_running_stats=True)
            )
          )
          (1): None
          (2): Sequential(
            (0): Conv2d(192, 96, kernel_size=(1, 1), stride=(1, 1), bias=False)
            (1): BatchNorm2d(96, eps=1e-05, momentum=0.1, affine=True, track_running_stats=True)
            (2): Upsample(scale_factor=2.0, mode=nearest)
          )
        )
        (2): ModuleList(
          (0): Sequential(
            (0): Sequential(
              (0): Conv2d(48, 48, kernel_size=(3, 3), stride=(2, 2), padding=(1, 1), bias=False)
              (1): BatchNorm2d(48, eps=1e-05, momentum=0.1, affine=True, track_running_stats=True)
              (2): ReLU(inplace=True)
            )
            (1): Sequential(
              (0): Conv2d(48, 192, kernel_size=(3, 3), stride=(2, 2), padding=(1, 1), bias=False)
              (1): BatchNorm2d(192, eps=1e-05, momentum=0.1, affine=True, track_running_stats=True)
            )
          )
          (1): Sequential(
            (0): Sequential(
              (0): Conv2d(96, 192, kernel_size=(3, 3), stride=(2, 2), padding=(1, 1), bias=False)
              (1): BatchNorm2d(192, eps=1e-05, momentum=0.1, affine=True, track_running_stats=True)
            )
          )
          (2): None
        )
      )
      (relu): ReLU(inplace=True)
    )
  )
  (transition3): ModuleList(
    (0): None
    (1): None
    (2): None
    (3): Sequential(
      (0): Sequential(
        (0): Conv2d(192, 384, kernel_size=(3, 3), stride=(2, 2), padding=(1, 1), bias=False)
        (1): BatchNorm2d(384, eps=1e-05, momentum=0.1, affine=True, track_running_stats=True)
        (2): ReLU(inplace=True)
      )
    )
  )
  (stage4): Sequential(
    (0): HighResolutionModule(
      (branches): ModuleList(
        (0): Sequential(
          (0): BasicBlock(
            (conv1): Conv2d(48, 48, kernel_size=(3, 3), stride=(1, 1), padding=(1, 1), bias=False)
            (bn1): BatchNorm2d(48, eps=1e-05, momentum=0.1, affine=True, track_running_stats=True)
            (relu): ReLU(inplace=True)
            (PSA): PSA_s(
              (conv_q_right): Conv2d(48, 1, kernel_size=(1, 1), stride=(1, 1), bias=False)
              (conv_v_right): Conv2d(48, 24, kernel_size=(1, 1), stride=(1, 1), bias=False)
              (conv_up): Sequential(
                (0): Conv2d(24, 6, kernel_size=(1, 1), stride=(1, 1))
                (1): LayerNorm((6, 1, 1), eps=1e-05, elementwise_affine=True)
                (2): ReLU(inplace=True)
                (3): Conv2d(6, 48, kernel_size=(1, 1), stride=(1, 1))
              )
              (softmax_right): Softmax(dim=2)
              (sigmoid): Sigmoid()
              (conv_q_left): Conv2d(48, 24, kernel_size=(1, 1), stride=(1, 1), bias=False)
              (avg_pool): AdaptiveAvgPool2d(output_size=1)
              (conv_v_left): Conv2d(48, 24, kernel_size=(1, 1), stride=(1, 1), bias=False)
              (softmax_left): Softmax(dim=2)
            )
            (conv2): Conv2d(48, 48, kernel_size=(3, 3), stride=(1, 1), padding=(1, 1), bias=False)
            (bn2): BatchNorm2d(48, eps=1e-05, momentum=0.1, affine=True, track_running_stats=True)
          )
          (1): BasicBlock(
            (conv1): Conv2d(48, 48, kernel_size=(3, 3), stride=(1, 1), padding=(1, 1), bias=False)
            (bn1): BatchNorm2d(48, eps=1e-05, momentum=0.1, affine=True, track_running_stats=True)
            (relu): ReLU(inplace=True)
            (PSA): PSA_s(
              (conv_q_right): Conv2d(48, 1, kernel_size=(1, 1), stride=(1, 1), bias=False)
              (conv_v_right): Conv2d(48, 24, kernel_size=(1, 1), stride=(1, 1), bias=False)
              (conv_up): Sequential(
                (0): Conv2d(24, 6, kernel_size=(1, 1), stride=(1, 1))
                (1): LayerNorm((6, 1, 1), eps=1e-05, elementwise_affine=True)
                (2): ReLU(inplace=True)
                (3): Conv2d(6, 48, kernel_size=(1, 1), stride=(1, 1))
              )
              (softmax_right): Softmax(dim=2)
              (sigmoid): Sigmoid()
              (conv_q_left): Conv2d(48, 24, kernel_size=(1, 1), stride=(1, 1), bias=False)
              (avg_pool): AdaptiveAvgPool2d(output_size=1)
              (conv_v_left): Conv2d(48, 24, kernel_size=(1, 1), stride=(1, 1), bias=False)
              (softmax_left): Softmax(dim=2)
            )
            (conv2): Conv2d(48, 48, kernel_size=(3, 3), stride=(1, 1), padding=(1, 1), bias=False)
            (bn2): BatchNorm2d(48, eps=1e-05, momentum=0.1, affine=True, track_running_stats=True)
          )
          (2): BasicBlock(
            (conv1): Conv2d(48, 48, kernel_size=(3, 3), stride=(1, 1), padding=(1, 1), bias=False)
            (bn1): BatchNorm2d(48, eps=1e-05, momentum=0.1, affine=True, track_running_stats=True)
            (relu): ReLU(inplace=True)
            (PSA): PSA_s(
              (conv_q_right): Conv2d(48, 1, kernel_size=(1, 1), stride=(1, 1), bias=False)
              (conv_v_right): Conv2d(48, 24, kernel_size=(1, 1), stride=(1, 1), bias=False)
              (conv_up): Sequential(
                (0): Conv2d(24, 6, kernel_size=(1, 1), stride=(1, 1))
                (1): LayerNorm((6, 1, 1), eps=1e-05, elementwise_affine=True)
                (2): ReLU(inplace=True)
                (3): Conv2d(6, 48, kernel_size=(1, 1), stride=(1, 1))
              )
              (softmax_right): Softmax(dim=2)
              (sigmoid): Sigmoid()
              (conv_q_left): Conv2d(48, 24, kernel_size=(1, 1), stride=(1, 1), bias=False)
              (avg_pool): AdaptiveAvgPool2d(output_size=1)
              (conv_v_left): Conv2d(48, 24, kernel_size=(1, 1), stride=(1, 1), bias=False)
              (softmax_left): Softmax(dim=2)
            )
            (conv2): Conv2d(48, 48, kernel_size=(3, 3), stride=(1, 1), padding=(1, 1), bias=False)
            (bn2): BatchNorm2d(48, eps=1e-05, momentum=0.1, affine=True, track_running_stats=True)
          )
          (3): BasicBlock(
            (conv1): Conv2d(48, 48, kernel_size=(3, 3), stride=(1, 1), padding=(1, 1), bias=False)
            (bn1): BatchNorm2d(48, eps=1e-05, momentum=0.1, affine=True, track_running_stats=True)
            (relu): ReLU(inplace=True)
            (PSA): PSA_s(
              (conv_q_right): Conv2d(48, 1, kernel_size=(1, 1), stride=(1, 1), bias=False)
              (conv_v_right): Conv2d(48, 24, kernel_size=(1, 1), stride=(1, 1), bias=False)
              (conv_up): Sequential(
                (0): Conv2d(24, 6, kernel_size=(1, 1), stride=(1, 1))
                (1): LayerNorm((6, 1, 1), eps=1e-05, elementwise_affine=True)
                (2): ReLU(inplace=True)
                (3): Conv2d(6, 48, kernel_size=(1, 1), stride=(1, 1))
              )
              (softmax_right): Softmax(dim=2)
              (sigmoid): Sigmoid()
              (conv_q_left): Conv2d(48, 24, kernel_size=(1, 1), stride=(1, 1), bias=False)
              (avg_pool): AdaptiveAvgPool2d(output_size=1)
              (conv_v_left): Conv2d(48, 24, kernel_size=(1, 1), stride=(1, 1), bias=False)
              (softmax_left): Softmax(dim=2)
            )
            (conv2): Conv2d(48, 48, kernel_size=(3, 3), stride=(1, 1), padding=(1, 1), bias=False)
            (bn2): BatchNorm2d(48, eps=1e-05, momentum=0.1, affine=True, track_running_stats=True)
          )
        )
        (1): Sequential(
          (0): BasicBlock(
            (conv1): Conv2d(96, 96, kernel_size=(3, 3), stride=(1, 1), padding=(1, 1), bias=False)
            (bn1): BatchNorm2d(96, eps=1e-05, momentum=0.1, affine=True, track_running_stats=True)
            (relu): ReLU(inplace=True)
            (PSA): PSA_s(
              (conv_q_right): Conv2d(96, 1, kernel_size=(1, 1), stride=(1, 1), bias=False)
              (conv_v_right): Conv2d(96, 48, kernel_size=(1, 1), stride=(1, 1), bias=False)
              (conv_up): Sequential(
                (0): Conv2d(48, 12, kernel_size=(1, 1), stride=(1, 1))
                (1): LayerNorm((12, 1, 1), eps=1e-05, elementwise_affine=True)
                (2): ReLU(inplace=True)
                (3): Conv2d(12, 96, kernel_size=(1, 1), stride=(1, 1))
              )
              (softmax_right): Softmax(dim=2)
              (sigmoid): Sigmoid()
              (conv_q_left): Conv2d(96, 48, kernel_size=(1, 1), stride=(1, 1), bias=False)
              (avg_pool): AdaptiveAvgPool2d(output_size=1)
              (conv_v_left): Conv2d(96, 48, kernel_size=(1, 1), stride=(1, 1), bias=False)
              (softmax_left): Softmax(dim=2)
            )
            (conv2): Conv2d(96, 96, kernel_size=(3, 3), stride=(1, 1), padding=(1, 1), bias=False)
            (bn2): BatchNorm2d(96, eps=1e-05, momentum=0.1, affine=True, track_running_stats=True)
          )
          (1): BasicBlock(
            (conv1): Conv2d(96, 96, kernel_size=(3, 3), stride=(1, 1), padding=(1, 1), bias=False)
            (bn1): BatchNorm2d(96, eps=1e-05, momentum=0.1, affine=True, track_running_stats=True)
            (relu): ReLU(inplace=True)
            (PSA): PSA_s(
              (conv_q_right): Conv2d(96, 1, kernel_size=(1, 1), stride=(1, 1), bias=False)
              (conv_v_right): Conv2d(96, 48, kernel_size=(1, 1), stride=(1, 1), bias=False)
              (conv_up): Sequential(
                (0): Conv2d(48, 12, kernel_size=(1, 1), stride=(1, 1))
                (1): LayerNorm((12, 1, 1), eps=1e-05, elementwise_affine=True)
                (2): ReLU(inplace=True)
                (3): Conv2d(12, 96, kernel_size=(1, 1), stride=(1, 1))
              )
              (softmax_right): Softmax(dim=2)
              (sigmoid): Sigmoid()
              (conv_q_left): Conv2d(96, 48, kernel_size=(1, 1), stride=(1, 1), bias=False)
              (avg_pool): AdaptiveAvgPool2d(output_size=1)
              (conv_v_left): Conv2d(96, 48, kernel_size=(1, 1), stride=(1, 1), bias=False)
              (softmax_left): Softmax(dim=2)
            )
            (conv2): Conv2d(96, 96, kernel_size=(3, 3), stride=(1, 1), padding=(1, 1), bias=False)
            (bn2): BatchNorm2d(96, eps=1e-05, momentum=0.1, affine=True, track_running_stats=True)
          )
          (2): BasicBlock(
            (conv1): Conv2d(96, 96, kernel_size=(3, 3), stride=(1, 1), padding=(1, 1), bias=False)
            (bn1): BatchNorm2d(96, eps=1e-05, momentum=0.1, affine=True, track_running_stats=True)
            (relu): ReLU(inplace=True)
            (PSA): PSA_s(
              (conv_q_right): Conv2d(96, 1, kernel_size=(1, 1), stride=(1, 1), bias=False)
              (conv_v_right): Conv2d(96, 48, kernel_size=(1, 1), stride=(1, 1), bias=False)
              (conv_up): Sequential(
                (0): Conv2d(48, 12, kernel_size=(1, 1), stride=(1, 1))
                (1): LayerNorm((12, 1, 1), eps=1e-05, elementwise_affine=True)
                (2): ReLU(inplace=True)
                (3): Conv2d(12, 96, kernel_size=(1, 1), stride=(1, 1))
              )
              (softmax_right): Softmax(dim=2)
              (sigmoid): Sigmoid()
              (conv_q_left): Conv2d(96, 48, kernel_size=(1, 1), stride=(1, 1), bias=False)
              (avg_pool): AdaptiveAvgPool2d(output_size=1)
              (conv_v_left): Conv2d(96, 48, kernel_size=(1, 1), stride=(1, 1), bias=False)
              (softmax_left): Softmax(dim=2)
            )
            (conv2): Conv2d(96, 96, kernel_size=(3, 3), stride=(1, 1), padding=(1, 1), bias=False)
            (bn2): BatchNorm2d(96, eps=1e-05, momentum=0.1, affine=True, track_running_stats=True)
          )
          (3): BasicBlock(
            (conv1): Conv2d(96, 96, kernel_size=(3, 3), stride=(1, 1), padding=(1, 1), bias=False)
            (bn1): BatchNorm2d(96, eps=1e-05, momentum=0.1, affine=True, track_running_stats=True)
            (relu): ReLU(inplace=True)
            (PSA): PSA_s(
              (conv_q_right): Conv2d(96, 1, kernel_size=(1, 1), stride=(1, 1), bias=False)
              (conv_v_right): Conv2d(96, 48, kernel_size=(1, 1), stride=(1, 1), bias=False)
              (conv_up): Sequential(
                (0): Conv2d(48, 12, kernel_size=(1, 1), stride=(1, 1))
                (1): LayerNorm((12, 1, 1), eps=1e-05, elementwise_affine=True)
                (2): ReLU(inplace=True)
                (3): Conv2d(12, 96, kernel_size=(1, 1), stride=(1, 1))
              )
              (softmax_right): Softmax(dim=2)
              (sigmoid): Sigmoid()
              (conv_q_left): Conv2d(96, 48, kernel_size=(1, 1), stride=(1, 1), bias=False)
              (avg_pool): AdaptiveAvgPool2d(output_size=1)
              (conv_v_left): Conv2d(96, 48, kernel_size=(1, 1), stride=(1, 1), bias=False)
              (softmax_left): Softmax(dim=2)
            )
            (conv2): Conv2d(96, 96, kernel_size=(3, 3), stride=(1, 1), padding=(1, 1), bias=False)
            (bn2): BatchNorm2d(96, eps=1e-05, momentum=0.1, affine=True, track_running_stats=True)
          )
        )
        (2): Sequential(
          (0): BasicBlock(
            (conv1): Conv2d(192, 192, kernel_size=(3, 3), stride=(1, 1), padding=(1, 1), bias=False)
            (bn1): BatchNorm2d(192, eps=1e-05, momentum=0.1, affine=True, track_running_stats=True)
            (relu): ReLU(inplace=True)
            (PSA): PSA_s(
              (conv_q_right): Conv2d(192, 1, kernel_size=(1, 1), stride=(1, 1), bias=False)
              (conv_v_right): Conv2d(192, 96, kernel_size=(1, 1), stride=(1, 1), bias=False)
              (conv_up): Sequential(
                (0): Conv2d(96, 24, kernel_size=(1, 1), stride=(1, 1))
                (1): LayerNorm((24, 1, 1), eps=1e-05, elementwise_affine=True)
                (2): ReLU(inplace=True)
                (3): Conv2d(24, 192, kernel_size=(1, 1), stride=(1, 1))
              )
              (softmax_right): Softmax(dim=2)
              (sigmoid): Sigmoid()
              (conv_q_left): Conv2d(192, 96, kernel_size=(1, 1), stride=(1, 1), bias=False)
              (avg_pool): AdaptiveAvgPool2d(output_size=1)
              (conv_v_left): Conv2d(192, 96, kernel_size=(1, 1), stride=(1, 1), bias=False)
              (softmax_left): Softmax(dim=2)
            )
            (conv2): Conv2d(192, 192, kernel_size=(3, 3), stride=(1, 1), padding=(1, 1), bias=False)
            (bn2): BatchNorm2d(192, eps=1e-05, momentum=0.1, affine=True, track_running_stats=True)
          )
          (1): BasicBlock(
            (conv1): Conv2d(192, 192, kernel_size=(3, 3), stride=(1, 1), padding=(1, 1), bias=False)
            (bn1): BatchNorm2d(192, eps=1e-05, momentum=0.1, affine=True, track_running_stats=True)
            (relu): ReLU(inplace=True)
            (PSA): PSA_s(
              (conv_q_right): Conv2d(192, 1, kernel_size=(1, 1), stride=(1, 1), bias=False)
              (conv_v_right): Conv2d(192, 96, kernel_size=(1, 1), stride=(1, 1), bias=False)
              (conv_up): Sequential(
                (0): Conv2d(96, 24, kernel_size=(1, 1), stride=(1, 1))
                (1): LayerNorm((24, 1, 1), eps=1e-05, elementwise_affine=True)
                (2): ReLU(inplace=True)
                (3): Conv2d(24, 192, kernel_size=(1, 1), stride=(1, 1))
              )
              (softmax_right): Softmax(dim=2)
              (sigmoid): Sigmoid()
              (conv_q_left): Conv2d(192, 96, kernel_size=(1, 1), stride=(1, 1), bias=False)
              (avg_pool): AdaptiveAvgPool2d(output_size=1)
              (conv_v_left): Conv2d(192, 96, kernel_size=(1, 1), stride=(1, 1), bias=False)
              (softmax_left): Softmax(dim=2)
            )
            (conv2): Conv2d(192, 192, kernel_size=(3, 3), stride=(1, 1), padding=(1, 1), bias=False)
            (bn2): BatchNorm2d(192, eps=1e-05, momentum=0.1, affine=True, track_running_stats=True)
          )
          (2): BasicBlock(
            (conv1): Conv2d(192, 192, kernel_size=(3, 3), stride=(1, 1), padding=(1, 1), bias=False)
            (bn1): BatchNorm2d(192, eps=1e-05, momentum=0.1, affine=True, track_running_stats=True)
            (relu): ReLU(inplace=True)
            (PSA): PSA_s(
              (conv_q_right): Conv2d(192, 1, kernel_size=(1, 1), stride=(1, 1), bias=False)
              (conv_v_right): Conv2d(192, 96, kernel_size=(1, 1), stride=(1, 1), bias=False)
              (conv_up): Sequential(
                (0): Conv2d(96, 24, kernel_size=(1, 1), stride=(1, 1))
                (1): LayerNorm((24, 1, 1), eps=1e-05, elementwise_affine=True)
                (2): ReLU(inplace=True)
                (3): Conv2d(24, 192, kernel_size=(1, 1), stride=(1, 1))
              )
              (softmax_right): Softmax(dim=2)
              (sigmoid): Sigmoid()
              (conv_q_left): Conv2d(192, 96, kernel_size=(1, 1), stride=(1, 1), bias=False)
              (avg_pool): AdaptiveAvgPool2d(output_size=1)
              (conv_v_left): Conv2d(192, 96, kernel_size=(1, 1), stride=(1, 1), bias=False)
              (softmax_left): Softmax(dim=2)
            )
            (conv2): Conv2d(192, 192, kernel_size=(3, 3), stride=(1, 1), padding=(1, 1), bias=False)
            (bn2): BatchNorm2d(192, eps=1e-05, momentum=0.1, affine=True, track_running_stats=True)
          )
          (3): BasicBlock(
            (conv1): Conv2d(192, 192, kernel_size=(3, 3), stride=(1, 1), padding=(1, 1), bias=False)
            (bn1): BatchNorm2d(192, eps=1e-05, momentum=0.1, affine=True, track_running_stats=True)
            (relu): ReLU(inplace=True)
            (PSA): PSA_s(
              (conv_q_right): Conv2d(192, 1, kernel_size=(1, 1), stride=(1, 1), bias=False)
              (conv_v_right): Conv2d(192, 96, kernel_size=(1, 1), stride=(1, 1), bias=False)
              (conv_up): Sequential(
                (0): Conv2d(96, 24, kernel_size=(1, 1), stride=(1, 1))
                (1): LayerNorm((24, 1, 1), eps=1e-05, elementwise_affine=True)
                (2): ReLU(inplace=True)
                (3): Conv2d(24, 192, kernel_size=(1, 1), stride=(1, 1))
              )
              (softmax_right): Softmax(dim=2)
              (sigmoid): Sigmoid()
              (conv_q_left): Conv2d(192, 96, kernel_size=(1, 1), stride=(1, 1), bias=False)
              (avg_pool): AdaptiveAvgPool2d(output_size=1)
              (conv_v_left): Conv2d(192, 96, kernel_size=(1, 1), stride=(1, 1), bias=False)
              (softmax_left): Softmax(dim=2)
            )
            (conv2): Conv2d(192, 192, kernel_size=(3, 3), stride=(1, 1), padding=(1, 1), bias=False)
            (bn2): BatchNorm2d(192, eps=1e-05, momentum=0.1, affine=True, track_running_stats=True)
          )
        )
        (3): Sequential(
          (0): BasicBlock(
            (conv1): Conv2d(384, 384, kernel_size=(3, 3), stride=(1, 1), padding=(1, 1), bias=False)
            (bn1): BatchNorm2d(384, eps=1e-05, momentum=0.1, affine=True, track_running_stats=True)
            (relu): ReLU(inplace=True)
            (PSA): PSA_s(
              (conv_q_right): Conv2d(384, 1, kernel_size=(1, 1), stride=(1, 1), bias=False)
              (conv_v_right): Conv2d(384, 192, kernel_size=(1, 1), stride=(1, 1), bias=False)
              (conv_up): Sequential(
                (0): Conv2d(192, 48, kernel_size=(1, 1), stride=(1, 1))
                (1): LayerNorm((48, 1, 1), eps=1e-05, elementwise_affine=True)
                (2): ReLU(inplace=True)
                (3): Conv2d(48, 384, kernel_size=(1, 1), stride=(1, 1))
              )
              (softmax_right): Softmax(dim=2)
              (sigmoid): Sigmoid()
              (conv_q_left): Conv2d(384, 192, kernel_size=(1, 1), stride=(1, 1), bias=False)
              (avg_pool): AdaptiveAvgPool2d(output_size=1)
              (conv_v_left): Conv2d(384, 192, kernel_size=(1, 1), stride=(1, 1), bias=False)
              (softmax_left): Softmax(dim=2)
            )
            (conv2): Conv2d(384, 384, kernel_size=(3, 3), stride=(1, 1), padding=(1, 1), bias=False)
            (bn2): BatchNorm2d(384, eps=1e-05, momentum=0.1, affine=True, track_running_stats=True)
          )
          (1): BasicBlock(
            (conv1): Conv2d(384, 384, kernel_size=(3, 3), stride=(1, 1), padding=(1, 1), bias=False)
            (bn1): BatchNorm2d(384, eps=1e-05, momentum=0.1, affine=True, track_running_stats=True)
            (relu): ReLU(inplace=True)
            (PSA): PSA_s(
              (conv_q_right): Conv2d(384, 1, kernel_size=(1, 1), stride=(1, 1), bias=False)
              (conv_v_right): Conv2d(384, 192, kernel_size=(1, 1), stride=(1, 1), bias=False)
              (conv_up): Sequential(
                (0): Conv2d(192, 48, kernel_size=(1, 1), stride=(1, 1))
                (1): LayerNorm((48, 1, 1), eps=1e-05, elementwise_affine=True)
                (2): ReLU(inplace=True)
                (3): Conv2d(48, 384, kernel_size=(1, 1), stride=(1, 1))
              )
              (softmax_right): Softmax(dim=2)
              (sigmoid): Sigmoid()
              (conv_q_left): Conv2d(384, 192, kernel_size=(1, 1), stride=(1, 1), bias=False)
              (avg_pool): AdaptiveAvgPool2d(output_size=1)
              (conv_v_left): Conv2d(384, 192, kernel_size=(1, 1), stride=(1, 1), bias=False)
              (softmax_left): Softmax(dim=2)
            )
            (conv2): Conv2d(384, 384, kernel_size=(3, 3), stride=(1, 1), padding=(1, 1), bias=False)
            (bn2): BatchNorm2d(384, eps=1e-05, momentum=0.1, affine=True, track_running_stats=True)
          )
          (2): BasicBlock(
            (conv1): Conv2d(384, 384, kernel_size=(3, 3), stride=(1, 1), padding=(1, 1), bias=False)
            (bn1): BatchNorm2d(384, eps=1e-05, momentum=0.1, affine=True, track_running_stats=True)
            (relu): ReLU(inplace=True)
            (PSA): PSA_s(
              (conv_q_right): Conv2d(384, 1, kernel_size=(1, 1), stride=(1, 1), bias=False)
              (conv_v_right): Conv2d(384, 192, kernel_size=(1, 1), stride=(1, 1), bias=False)
              (conv_up): Sequential(
                (0): Conv2d(192, 48, kernel_size=(1, 1), stride=(1, 1))
                (1): LayerNorm((48, 1, 1), eps=1e-05, elementwise_affine=True)
                (2): ReLU(inplace=True)
                (3): Conv2d(48, 384, kernel_size=(1, 1), stride=(1, 1))
              )
              (softmax_right): Softmax(dim=2)
              (sigmoid): Sigmoid()
              (conv_q_left): Conv2d(384, 192, kernel_size=(1, 1), stride=(1, 1), bias=False)
              (avg_pool): AdaptiveAvgPool2d(output_size=1)
              (conv_v_left): Conv2d(384, 192, kernel_size=(1, 1), stride=(1, 1), bias=False)
              (softmax_left): Softmax(dim=2)
            )
            (conv2): Conv2d(384, 384, kernel_size=(3, 3), stride=(1, 1), padding=(1, 1), bias=False)
            (bn2): BatchNorm2d(384, eps=1e-05, momentum=0.1, affine=True, track_running_stats=True)
          )
          (3): BasicBlock(
            (conv1): Conv2d(384, 384, kernel_size=(3, 3), stride=(1, 1), padding=(1, 1), bias=False)
            (bn1): BatchNorm2d(384, eps=1e-05, momentum=0.1, affine=True, track_running_stats=True)
            (relu): ReLU(inplace=True)
            (PSA): PSA_s(
              (conv_q_right): Conv2d(384, 1, kernel_size=(1, 1), stride=(1, 1), bias=False)
              (conv_v_right): Conv2d(384, 192, kernel_size=(1, 1), stride=(1, 1), bias=False)
              (conv_up): Sequential(
                (0): Conv2d(192, 48, kernel_size=(1, 1), stride=(1, 1))
                (1): LayerNorm((48, 1, 1), eps=1e-05, elementwise_affine=True)
                (2): ReLU(inplace=True)
                (3): Conv2d(48, 384, kernel_size=(1, 1), stride=(1, 1))
              )
              (softmax_right): Softmax(dim=2)
              (sigmoid): Sigmoid()
              (conv_q_left): Conv2d(384, 192, kernel_size=(1, 1), stride=(1, 1), bias=False)
              (avg_pool): AdaptiveAvgPool2d(output_size=1)
              (conv_v_left): Conv2d(384, 192, kernel_size=(1, 1), stride=(1, 1), bias=False)
              (softmax_left): Softmax(dim=2)
            )
            (conv2): Conv2d(384, 384, kernel_size=(3, 3), stride=(1, 1), padding=(1, 1), bias=False)
            (bn2): BatchNorm2d(384, eps=1e-05, momentum=0.1, affine=True, track_running_stats=True)
          )
        )
      )
      (fuse_layers): ModuleList(
        (0): ModuleList(
          (0): None
          (1): Sequential(
            (0): Conv2d(96, 48, kernel_size=(1, 1), stride=(1, 1), bias=False)
            (1): BatchNorm2d(48, eps=1e-05, momentum=0.1, affine=True, track_running_stats=True)
            (2): Upsample(scale_factor=2.0, mode=nearest)
          )
          (2): Sequential(
            (0): Conv2d(192, 48, kernel_size=(1, 1), stride=(1, 1), bias=False)
            (1): BatchNorm2d(48, eps=1e-05, momentum=0.1, affine=True, track_running_stats=True)
            (2): Upsample(scale_factor=4.0, mode=nearest)
          )
          (3): Sequential(
            (0): Conv2d(384, 48, kernel_size=(1, 1), stride=(1, 1), bias=False)
            (1): BatchNorm2d(48, eps=1e-05, momentum=0.1, affine=True, track_running_stats=True)
            (2): Upsample(scale_factor=8.0, mode=nearest)
          )
        )
        (1): ModuleList(
          (0): Sequential(
            (0): Sequential(
              (0): Conv2d(48, 96, kernel_size=(3, 3), stride=(2, 2), padding=(1, 1), bias=False)
              (1): BatchNorm2d(96, eps=1e-05, momentum=0.1, affine=True, track_running_stats=True)
            )
          )
          (1): None
          (2): Sequential(
            (0): Conv2d(192, 96, kernel_size=(1, 1), stride=(1, 1), bias=False)
            (1): BatchNorm2d(96, eps=1e-05, momentum=0.1, affine=True, track_running_stats=True)
            (2): Upsample(scale_factor=2.0, mode=nearest)
          )
          (3): Sequential(
            (0): Conv2d(384, 96, kernel_size=(1, 1), stride=(1, 1), bias=False)
            (1): BatchNorm2d(96, eps=1e-05, momentum=0.1, affine=True, track_running_stats=True)
            (2): Upsample(scale_factor=4.0, mode=nearest)
          )
        )
        (2): ModuleList(
          (0): Sequential(
            (0): Sequential(
              (0): Conv2d(48, 48, kernel_size=(3, 3), stride=(2, 2), padding=(1, 1), bias=False)
              (1): BatchNorm2d(48, eps=1e-05, momentum=0.1, affine=True, track_running_stats=True)
              (2): ReLU(inplace=True)
            )
            (1): Sequential(
              (0): Conv2d(48, 192, kernel_size=(3, 3), stride=(2, 2), padding=(1, 1), bias=False)
              (1): BatchNorm2d(192, eps=1e-05, momentum=0.1, affine=True, track_running_stats=True)
            )
          )
          (1): Sequential(
            (0): Sequential(
              (0): Conv2d(96, 192, kernel_size=(3, 3), stride=(2, 2), padding=(1, 1), bias=False)
              (1): BatchNorm2d(192, eps=1e-05, momentum=0.1, affine=True, track_running_stats=True)
            )
          )
          (2): None
          (3): Sequential(
            (0): Conv2d(384, 192, kernel_size=(1, 1), stride=(1, 1), bias=False)
            (1): BatchNorm2d(192, eps=1e-05, momentum=0.1, affine=True, track_running_stats=True)
            (2): Upsample(scale_factor=2.0, mode=nearest)
          )
        )
        (3): ModuleList(
          (0): Sequential(
            (0): Sequential(
              (0): Conv2d(48, 48, kernel_size=(3, 3), stride=(2, 2), padding=(1, 1), bias=False)
              (1): BatchNorm2d(48, eps=1e-05, momentum=0.1, affine=True, track_running_stats=True)
              (2): ReLU(inplace=True)
            )
            (1): Sequential(
              (0): Conv2d(48, 48, kernel_size=(3, 3), stride=(2, 2), padding=(1, 1), bias=False)
              (1): BatchNorm2d(48, eps=1e-05, momentum=0.1, affine=True, track_running_stats=True)
              (2): ReLU(inplace=True)
            )
            (2): Sequential(
              (0): Conv2d(48, 384, kernel_size=(3, 3), stride=(2, 2), padding=(1, 1), bias=False)
              (1): BatchNorm2d(384, eps=1e-05, momentum=0.1, affine=True, track_running_stats=True)
            )
          )
          (1): Sequential(
            (0): Sequential(
              (0): Conv2d(96, 96, kernel_size=(3, 3), stride=(2, 2), padding=(1, 1), bias=False)
              (1): BatchNorm2d(96, eps=1e-05, momentum=0.1, affine=True, track_running_stats=True)
              (2): ReLU(inplace=True)
            )
            (1): Sequential(
              (0): Conv2d(96, 384, kernel_size=(3, 3), stride=(2, 2), padding=(1, 1), bias=False)
              (1): BatchNorm2d(384, eps=1e-05, momentum=0.1, affine=True, track_running_stats=True)
            )
          )
          (2): Sequential(
            (0): Sequential(
              (0): Conv2d(192, 384, kernel_size=(3, 3), stride=(2, 2), padding=(1, 1), bias=False)
              (1): BatchNorm2d(384, eps=1e-05, momentum=0.1, affine=True, track_running_stats=True)
            )
          )
          (3): None
        )
      )
      (relu): ReLU(inplace=True)
    )
    (1): HighResolutionModule(
      (branches): ModuleList(
        (0): Sequential(
          (0): BasicBlock(
            (conv1): Conv2d(48, 48, kernel_size=(3, 3), stride=(1, 1), padding=(1, 1), bias=False)
            (bn1): BatchNorm2d(48, eps=1e-05, momentum=0.1, affine=True, track_running_stats=True)
            (relu): ReLU(inplace=True)
            (PSA): PSA_s(
              (conv_q_right): Conv2d(48, 1, kernel_size=(1, 1), stride=(1, 1), bias=False)
              (conv_v_right): Conv2d(48, 24, kernel_size=(1, 1), stride=(1, 1), bias=False)
              (conv_up): Sequential(
                (0): Conv2d(24, 6, kernel_size=(1, 1), stride=(1, 1))
                (1): LayerNorm((6, 1, 1), eps=1e-05, elementwise_affine=True)
                (2): ReLU(inplace=True)
                (3): Conv2d(6, 48, kernel_size=(1, 1), stride=(1, 1))
              )
              (softmax_right): Softmax(dim=2)
              (sigmoid): Sigmoid()
              (conv_q_left): Conv2d(48, 24, kernel_size=(1, 1), stride=(1, 1), bias=False)
              (avg_pool): AdaptiveAvgPool2d(output_size=1)
              (conv_v_left): Conv2d(48, 24, kernel_size=(1, 1), stride=(1, 1), bias=False)
              (softmax_left): Softmax(dim=2)
            )
            (conv2): Conv2d(48, 48, kernel_size=(3, 3), stride=(1, 1), padding=(1, 1), bias=False)
            (bn2): BatchNorm2d(48, eps=1e-05, momentum=0.1, affine=True, track_running_stats=True)
          )
          (1): BasicBlock(
            (conv1): Conv2d(48, 48, kernel_size=(3, 3), stride=(1, 1), padding=(1, 1), bias=False)
            (bn1): BatchNorm2d(48, eps=1e-05, momentum=0.1, affine=True, track_running_stats=True)
            (relu): ReLU(inplace=True)
            (PSA): PSA_s(
              (conv_q_right): Conv2d(48, 1, kernel_size=(1, 1), stride=(1, 1), bias=False)
              (conv_v_right): Conv2d(48, 24, kernel_size=(1, 1), stride=(1, 1), bias=False)
              (conv_up): Sequential(
                (0): Conv2d(24, 6, kernel_size=(1, 1), stride=(1, 1))
                (1): LayerNorm((6, 1, 1), eps=1e-05, elementwise_affine=True)
                (2): ReLU(inplace=True)
                (3): Conv2d(6, 48, kernel_size=(1, 1), stride=(1, 1))
              )
              (softmax_right): Softmax(dim=2)
              (sigmoid): Sigmoid()
              (conv_q_left): Conv2d(48, 24, kernel_size=(1, 1), stride=(1, 1), bias=False)
              (avg_pool): AdaptiveAvgPool2d(output_size=1)
              (conv_v_left): Conv2d(48, 24, kernel_size=(1, 1), stride=(1, 1), bias=False)
              (softmax_left): Softmax(dim=2)
            )
            (conv2): Conv2d(48, 48, kernel_size=(3, 3), stride=(1, 1), padding=(1, 1), bias=False)
            (bn2): BatchNorm2d(48, eps=1e-05, momentum=0.1, affine=True, track_running_stats=True)
          )
          (2): BasicBlock(
            (conv1): Conv2d(48, 48, kernel_size=(3, 3), stride=(1, 1), padding=(1, 1), bias=False)
            (bn1): BatchNorm2d(48, eps=1e-05, momentum=0.1, affine=True, track_running_stats=True)
            (relu): ReLU(inplace=True)
            (PSA): PSA_s(
              (conv_q_right): Conv2d(48, 1, kernel_size=(1, 1), stride=(1, 1), bias=False)
              (conv_v_right): Conv2d(48, 24, kernel_size=(1, 1), stride=(1, 1), bias=False)
              (conv_up): Sequential(
                (0): Conv2d(24, 6, kernel_size=(1, 1), stride=(1, 1))
                (1): LayerNorm((6, 1, 1), eps=1e-05, elementwise_affine=True)
                (2): ReLU(inplace=True)
                (3): Conv2d(6, 48, kernel_size=(1, 1), stride=(1, 1))
              )
              (softmax_right): Softmax(dim=2)
              (sigmoid): Sigmoid()
              (conv_q_left): Conv2d(48, 24, kernel_size=(1, 1), stride=(1, 1), bias=False)
              (avg_pool): AdaptiveAvgPool2d(output_size=1)
              (conv_v_left): Conv2d(48, 24, kernel_size=(1, 1), stride=(1, 1), bias=False)
              (softmax_left): Softmax(dim=2)
            )
            (conv2): Conv2d(48, 48, kernel_size=(3, 3), stride=(1, 1), padding=(1, 1), bias=False)
            (bn2): BatchNorm2d(48, eps=1e-05, momentum=0.1, affine=True, track_running_stats=True)
          )
          (3): BasicBlock(
            (conv1): Conv2d(48, 48, kernel_size=(3, 3), stride=(1, 1), padding=(1, 1), bias=False)
            (bn1): BatchNorm2d(48, eps=1e-05, momentum=0.1, affine=True, track_running_stats=True)
            (relu): ReLU(inplace=True)
            (PSA): PSA_s(
              (conv_q_right): Conv2d(48, 1, kernel_size=(1, 1), stride=(1, 1), bias=False)
              (conv_v_right): Conv2d(48, 24, kernel_size=(1, 1), stride=(1, 1), bias=False)
              (conv_up): Sequential(
                (0): Conv2d(24, 6, kernel_size=(1, 1), stride=(1, 1))
                (1): LayerNorm((6, 1, 1), eps=1e-05, elementwise_affine=True)
                (2): ReLU(inplace=True)
                (3): Conv2d(6, 48, kernel_size=(1, 1), stride=(1, 1))
              )
              (softmax_right): Softmax(dim=2)
              (sigmoid): Sigmoid()
              (conv_q_left): Conv2d(48, 24, kernel_size=(1, 1), stride=(1, 1), bias=False)
              (avg_pool): AdaptiveAvgPool2d(output_size=1)
              (conv_v_left): Conv2d(48, 24, kernel_size=(1, 1), stride=(1, 1), bias=False)
              (softmax_left): Softmax(dim=2)
            )
            (conv2): Conv2d(48, 48, kernel_size=(3, 3), stride=(1, 1), padding=(1, 1), bias=False)
            (bn2): BatchNorm2d(48, eps=1e-05, momentum=0.1, affine=True, track_running_stats=True)
          )
        )
        (1): Sequential(
          (0): BasicBlock(
            (conv1): Conv2d(96, 96, kernel_size=(3, 3), stride=(1, 1), padding=(1, 1), bias=False)
            (bn1): BatchNorm2d(96, eps=1e-05, momentum=0.1, affine=True, track_running_stats=True)
            (relu): ReLU(inplace=True)
            (PSA): PSA_s(
              (conv_q_right): Conv2d(96, 1, kernel_size=(1, 1), stride=(1, 1), bias=False)
              (conv_v_right): Conv2d(96, 48, kernel_size=(1, 1), stride=(1, 1), bias=False)
              (conv_up): Sequential(
                (0): Conv2d(48, 12, kernel_size=(1, 1), stride=(1, 1))
                (1): LayerNorm((12, 1, 1), eps=1e-05, elementwise_affine=True)
                (2): ReLU(inplace=True)
                (3): Conv2d(12, 96, kernel_size=(1, 1), stride=(1, 1))
              )
              (softmax_right): Softmax(dim=2)
              (sigmoid): Sigmoid()
              (conv_q_left): Conv2d(96, 48, kernel_size=(1, 1), stride=(1, 1), bias=False)
              (avg_pool): AdaptiveAvgPool2d(output_size=1)
              (conv_v_left): Conv2d(96, 48, kernel_size=(1, 1), stride=(1, 1), bias=False)
              (softmax_left): Softmax(dim=2)
            )
            (conv2): Conv2d(96, 96, kernel_size=(3, 3), stride=(1, 1), padding=(1, 1), bias=False)
            (bn2): BatchNorm2d(96, eps=1e-05, momentum=0.1, affine=True, track_running_stats=True)
          )
          (1): BasicBlock(
            (conv1): Conv2d(96, 96, kernel_size=(3, 3), stride=(1, 1), padding=(1, 1), bias=False)
            (bn1): BatchNorm2d(96, eps=1e-05, momentum=0.1, affine=True, track_running_stats=True)
            (relu): ReLU(inplace=True)
            (PSA): PSA_s(
              (conv_q_right): Conv2d(96, 1, kernel_size=(1, 1), stride=(1, 1), bias=False)
              (conv_v_right): Conv2d(96, 48, kernel_size=(1, 1), stride=(1, 1), bias=False)
              (conv_up): Sequential(
                (0): Conv2d(48, 12, kernel_size=(1, 1), stride=(1, 1))
                (1): LayerNorm((12, 1, 1), eps=1e-05, elementwise_affine=True)
                (2): ReLU(inplace=True)
                (3): Conv2d(12, 96, kernel_size=(1, 1), stride=(1, 1))
              )
              (softmax_right): Softmax(dim=2)
              (sigmoid): Sigmoid()
              (conv_q_left): Conv2d(96, 48, kernel_size=(1, 1), stride=(1, 1), bias=False)
              (avg_pool): AdaptiveAvgPool2d(output_size=1)
              (conv_v_left): Conv2d(96, 48, kernel_size=(1, 1), stride=(1, 1), bias=False)
              (softmax_left): Softmax(dim=2)
            )
            (conv2): Conv2d(96, 96, kernel_size=(3, 3), stride=(1, 1), padding=(1, 1), bias=False)
            (bn2): BatchNorm2d(96, eps=1e-05, momentum=0.1, affine=True, track_running_stats=True)
          )
          (2): BasicBlock(
            (conv1): Conv2d(96, 96, kernel_size=(3, 3), stride=(1, 1), padding=(1, 1), bias=False)
            (bn1): BatchNorm2d(96, eps=1e-05, momentum=0.1, affine=True, track_running_stats=True)
            (relu): ReLU(inplace=True)
            (PSA): PSA_s(
              (conv_q_right): Conv2d(96, 1, kernel_size=(1, 1), stride=(1, 1), bias=False)
              (conv_v_right): Conv2d(96, 48, kernel_size=(1, 1), stride=(1, 1), bias=False)
              (conv_up): Sequential(
                (0): Conv2d(48, 12, kernel_size=(1, 1), stride=(1, 1))
                (1): LayerNorm((12, 1, 1), eps=1e-05, elementwise_affine=True)
                (2): ReLU(inplace=True)
                (3): Conv2d(12, 96, kernel_size=(1, 1), stride=(1, 1))
              )
              (softmax_right): Softmax(dim=2)
              (sigmoid): Sigmoid()
              (conv_q_left): Conv2d(96, 48, kernel_size=(1, 1), stride=(1, 1), bias=False)
              (avg_pool): AdaptiveAvgPool2d(output_size=1)
              (conv_v_left): Conv2d(96, 48, kernel_size=(1, 1), stride=(1, 1), bias=False)
              (softmax_left): Softmax(dim=2)
            )
            (conv2): Conv2d(96, 96, kernel_size=(3, 3), stride=(1, 1), padding=(1, 1), bias=False)
            (bn2): BatchNorm2d(96, eps=1e-05, momentum=0.1, affine=True, track_running_stats=True)
          )
          (3): BasicBlock(
            (conv1): Conv2d(96, 96, kernel_size=(3, 3), stride=(1, 1), padding=(1, 1), bias=False)
            (bn1): BatchNorm2d(96, eps=1e-05, momentum=0.1, affine=True, track_running_stats=True)
            (relu): ReLU(inplace=True)
            (PSA): PSA_s(
              (conv_q_right): Conv2d(96, 1, kernel_size=(1, 1), stride=(1, 1), bias=False)
              (conv_v_right): Conv2d(96, 48, kernel_size=(1, 1), stride=(1, 1), bias=False)
              (conv_up): Sequential(
                (0): Conv2d(48, 12, kernel_size=(1, 1), stride=(1, 1))
                (1): LayerNorm((12, 1, 1), eps=1e-05, elementwise_affine=True)
                (2): ReLU(inplace=True)
                (3): Conv2d(12, 96, kernel_size=(1, 1), stride=(1, 1))
              )
              (softmax_right): Softmax(dim=2)
              (sigmoid): Sigmoid()
              (conv_q_left): Conv2d(96, 48, kernel_size=(1, 1), stride=(1, 1), bias=False)
              (avg_pool): AdaptiveAvgPool2d(output_size=1)
              (conv_v_left): Conv2d(96, 48, kernel_size=(1, 1), stride=(1, 1), bias=False)
              (softmax_left): Softmax(dim=2)
            )
            (conv2): Conv2d(96, 96, kernel_size=(3, 3), stride=(1, 1), padding=(1, 1), bias=False)
            (bn2): BatchNorm2d(96, eps=1e-05, momentum=0.1, affine=True, track_running_stats=True)
          )
        )
        (2): Sequential(
          (0): BasicBlock(
            (conv1): Conv2d(192, 192, kernel_size=(3, 3), stride=(1, 1), padding=(1, 1), bias=False)
            (bn1): BatchNorm2d(192, eps=1e-05, momentum=0.1, affine=True, track_running_stats=True)
            (relu): ReLU(inplace=True)
            (PSA): PSA_s(
              (conv_q_right): Conv2d(192, 1, kernel_size=(1, 1), stride=(1, 1), bias=False)
              (conv_v_right): Conv2d(192, 96, kernel_size=(1, 1), stride=(1, 1), bias=False)
              (conv_up): Sequential(
                (0): Conv2d(96, 24, kernel_size=(1, 1), stride=(1, 1))
                (1): LayerNorm((24, 1, 1), eps=1e-05, elementwise_affine=True)
                (2): ReLU(inplace=True)
                (3): Conv2d(24, 192, kernel_size=(1, 1), stride=(1, 1))
              )
              (softmax_right): Softmax(dim=2)
              (sigmoid): Sigmoid()
              (conv_q_left): Conv2d(192, 96, kernel_size=(1, 1), stride=(1, 1), bias=False)
              (avg_pool): AdaptiveAvgPool2d(output_size=1)
              (conv_v_left): Conv2d(192, 96, kernel_size=(1, 1), stride=(1, 1), bias=False)
              (softmax_left): Softmax(dim=2)
            )
            (conv2): Conv2d(192, 192, kernel_size=(3, 3), stride=(1, 1), padding=(1, 1), bias=False)
            (bn2): BatchNorm2d(192, eps=1e-05, momentum=0.1, affine=True, track_running_stats=True)
          )
          (1): BasicBlock(
            (conv1): Conv2d(192, 192, kernel_size=(3, 3), stride=(1, 1), padding=(1, 1), bias=False)
            (bn1): BatchNorm2d(192, eps=1e-05, momentum=0.1, affine=True, track_running_stats=True)
            (relu): ReLU(inplace=True)
            (PSA): PSA_s(
              (conv_q_right): Conv2d(192, 1, kernel_size=(1, 1), stride=(1, 1), bias=False)
              (conv_v_right): Conv2d(192, 96, kernel_size=(1, 1), stride=(1, 1), bias=False)
              (conv_up): Sequential(
                (0): Conv2d(96, 24, kernel_size=(1, 1), stride=(1, 1))
                (1): LayerNorm((24, 1, 1), eps=1e-05, elementwise_affine=True)
                (2): ReLU(inplace=True)
                (3): Conv2d(24, 192, kernel_size=(1, 1), stride=(1, 1))
              )
              (softmax_right): Softmax(dim=2)
              (sigmoid): Sigmoid()
              (conv_q_left): Conv2d(192, 96, kernel_size=(1, 1), stride=(1, 1), bias=False)
              (avg_pool): AdaptiveAvgPool2d(output_size=1)
              (conv_v_left): Conv2d(192, 96, kernel_size=(1, 1), stride=(1, 1), bias=False)
              (softmax_left): Softmax(dim=2)
            )
            (conv2): Conv2d(192, 192, kernel_size=(3, 3), stride=(1, 1), padding=(1, 1), bias=False)
            (bn2): BatchNorm2d(192, eps=1e-05, momentum=0.1, affine=True, track_running_stats=True)
          )
          (2): BasicBlock(
            (conv1): Conv2d(192, 192, kernel_size=(3, 3), stride=(1, 1), padding=(1, 1), bias=False)
            (bn1): BatchNorm2d(192, eps=1e-05, momentum=0.1, affine=True, track_running_stats=True)
            (relu): ReLU(inplace=True)
            (PSA): PSA_s(
              (conv_q_right): Conv2d(192, 1, kernel_size=(1, 1), stride=(1, 1), bias=False)
              (conv_v_right): Conv2d(192, 96, kernel_size=(1, 1), stride=(1, 1), bias=False)
              (conv_up): Sequential(
                (0): Conv2d(96, 24, kernel_size=(1, 1), stride=(1, 1))
                (1): LayerNorm((24, 1, 1), eps=1e-05, elementwise_affine=True)
                (2): ReLU(inplace=True)
                (3): Conv2d(24, 192, kernel_size=(1, 1), stride=(1, 1))
              )
              (softmax_right): Softmax(dim=2)
              (sigmoid): Sigmoid()
              (conv_q_left): Conv2d(192, 96, kernel_size=(1, 1), stride=(1, 1), bias=False)
              (avg_pool): AdaptiveAvgPool2d(output_size=1)
              (conv_v_left): Conv2d(192, 96, kernel_size=(1, 1), stride=(1, 1), bias=False)
              (softmax_left): Softmax(dim=2)
            )
            (conv2): Conv2d(192, 192, kernel_size=(3, 3), stride=(1, 1), padding=(1, 1), bias=False)
            (bn2): BatchNorm2d(192, eps=1e-05, momentum=0.1, affine=True, track_running_stats=True)
          )
          (3): BasicBlock(
            (conv1): Conv2d(192, 192, kernel_size=(3, 3), stride=(1, 1), padding=(1, 1), bias=False)
            (bn1): BatchNorm2d(192, eps=1e-05, momentum=0.1, affine=True, track_running_stats=True)
            (relu): ReLU(inplace=True)
            (PSA): PSA_s(
              (conv_q_right): Conv2d(192, 1, kernel_size=(1, 1), stride=(1, 1), bias=False)
              (conv_v_right): Conv2d(192, 96, kernel_size=(1, 1), stride=(1, 1), bias=False)
              (conv_up): Sequential(
                (0): Conv2d(96, 24, kernel_size=(1, 1), stride=(1, 1))
                (1): LayerNorm((24, 1, 1), eps=1e-05, elementwise_affine=True)
                (2): ReLU(inplace=True)
                (3): Conv2d(24, 192, kernel_size=(1, 1), stride=(1, 1))
              )
              (softmax_right): Softmax(dim=2)
              (sigmoid): Sigmoid()
              (conv_q_left): Conv2d(192, 96, kernel_size=(1, 1), stride=(1, 1), bias=False)
              (avg_pool): AdaptiveAvgPool2d(output_size=1)
              (conv_v_left): Conv2d(192, 96, kernel_size=(1, 1), stride=(1, 1), bias=False)
              (softmax_left): Softmax(dim=2)
            )
            (conv2): Conv2d(192, 192, kernel_size=(3, 3), stride=(1, 1), padding=(1, 1), bias=False)
            (bn2): BatchNorm2d(192, eps=1e-05, momentum=0.1, affine=True, track_running_stats=True)
          )
        )
        (3): Sequential(
          (0): BasicBlock(
            (conv1): Conv2d(384, 384, kernel_size=(3, 3), stride=(1, 1), padding=(1, 1), bias=False)
            (bn1): BatchNorm2d(384, eps=1e-05, momentum=0.1, affine=True, track_running_stats=True)
            (relu): ReLU(inplace=True)
            (PSA): PSA_s(
              (conv_q_right): Conv2d(384, 1, kernel_size=(1, 1), stride=(1, 1), bias=False)
              (conv_v_right): Conv2d(384, 192, kernel_size=(1, 1), stride=(1, 1), bias=False)
              (conv_up): Sequential(
                (0): Conv2d(192, 48, kernel_size=(1, 1), stride=(1, 1))
                (1): LayerNorm((48, 1, 1), eps=1e-05, elementwise_affine=True)
                (2): ReLU(inplace=True)
                (3): Conv2d(48, 384, kernel_size=(1, 1), stride=(1, 1))
              )
              (softmax_right): Softmax(dim=2)
              (sigmoid): Sigmoid()
              (conv_q_left): Conv2d(384, 192, kernel_size=(1, 1), stride=(1, 1), bias=False)
              (avg_pool): AdaptiveAvgPool2d(output_size=1)
              (conv_v_left): Conv2d(384, 192, kernel_size=(1, 1), stride=(1, 1), bias=False)
              (softmax_left): Softmax(dim=2)
            )
            (conv2): Conv2d(384, 384, kernel_size=(3, 3), stride=(1, 1), padding=(1, 1), bias=False)
            (bn2): BatchNorm2d(384, eps=1e-05, momentum=0.1, affine=True, track_running_stats=True)
          )
          (1): BasicBlock(
            (conv1): Conv2d(384, 384, kernel_size=(3, 3), stride=(1, 1), padding=(1, 1), bias=False)
            (bn1): BatchNorm2d(384, eps=1e-05, momentum=0.1, affine=True, track_running_stats=True)
            (relu): ReLU(inplace=True)
            (PSA): PSA_s(
              (conv_q_right): Conv2d(384, 1, kernel_size=(1, 1), stride=(1, 1), bias=False)
              (conv_v_right): Conv2d(384, 192, kernel_size=(1, 1), stride=(1, 1), bias=False)
              (conv_up): Sequential(
                (0): Conv2d(192, 48, kernel_size=(1, 1), stride=(1, 1))
                (1): LayerNorm((48, 1, 1), eps=1e-05, elementwise_affine=True)
                (2): ReLU(inplace=True)
                (3): Conv2d(48, 384, kernel_size=(1, 1), stride=(1, 1))
              )
              (softmax_right): Softmax(dim=2)
              (sigmoid): Sigmoid()
              (conv_q_left): Conv2d(384, 192, kernel_size=(1, 1), stride=(1, 1), bias=False)
              (avg_pool): AdaptiveAvgPool2d(output_size=1)
              (conv_v_left): Conv2d(384, 192, kernel_size=(1, 1), stride=(1, 1), bias=False)
              (softmax_left): Softmax(dim=2)
            )
            (conv2): Conv2d(384, 384, kernel_size=(3, 3), stride=(1, 1), padding=(1, 1), bias=False)
            (bn2): BatchNorm2d(384, eps=1e-05, momentum=0.1, affine=True, track_running_stats=True)
          )
          (2): BasicBlock(
            (conv1): Conv2d(384, 384, kernel_size=(3, 3), stride=(1, 1), padding=(1, 1), bias=False)
            (bn1): BatchNorm2d(384, eps=1e-05, momentum=0.1, affine=True, track_running_stats=True)
            (relu): ReLU(inplace=True)
            (PSA): PSA_s(
              (conv_q_right): Conv2d(384, 1, kernel_size=(1, 1), stride=(1, 1), bias=False)
              (conv_v_right): Conv2d(384, 192, kernel_size=(1, 1), stride=(1, 1), bias=False)
              (conv_up): Sequential(
                (0): Conv2d(192, 48, kernel_size=(1, 1), stride=(1, 1))
                (1): LayerNorm((48, 1, 1), eps=1e-05, elementwise_affine=True)
                (2): ReLU(inplace=True)
                (3): Conv2d(48, 384, kernel_size=(1, 1), stride=(1, 1))
              )
              (softmax_right): Softmax(dim=2)
              (sigmoid): Sigmoid()
              (conv_q_left): Conv2d(384, 192, kernel_size=(1, 1), stride=(1, 1), bias=False)
              (avg_pool): AdaptiveAvgPool2d(output_size=1)
              (conv_v_left): Conv2d(384, 192, kernel_size=(1, 1), stride=(1, 1), bias=False)
              (softmax_left): Softmax(dim=2)
            )
            (conv2): Conv2d(384, 384, kernel_size=(3, 3), stride=(1, 1), padding=(1, 1), bias=False)
            (bn2): BatchNorm2d(384, eps=1e-05, momentum=0.1, affine=True, track_running_stats=True)
          )
          (3): BasicBlock(
            (conv1): Conv2d(384, 384, kernel_size=(3, 3), stride=(1, 1), padding=(1, 1), bias=False)
            (bn1): BatchNorm2d(384, eps=1e-05, momentum=0.1, affine=True, track_running_stats=True)
            (relu): ReLU(inplace=True)
            (PSA): PSA_s(
              (conv_q_right): Conv2d(384, 1, kernel_size=(1, 1), stride=(1, 1), bias=False)
              (conv_v_right): Conv2d(384, 192, kernel_size=(1, 1), stride=(1, 1), bias=False)
              (conv_up): Sequential(
                (0): Conv2d(192, 48, kernel_size=(1, 1), stride=(1, 1))
                (1): LayerNorm((48, 1, 1), eps=1e-05, elementwise_affine=True)
                (2): ReLU(inplace=True)
                (3): Conv2d(48, 384, kernel_size=(1, 1), stride=(1, 1))
              )
              (softmax_right): Softmax(dim=2)
              (sigmoid): Sigmoid()
              (conv_q_left): Conv2d(384, 192, kernel_size=(1, 1), stride=(1, 1), bias=False)
              (avg_pool): AdaptiveAvgPool2d(output_size=1)
              (conv_v_left): Conv2d(384, 192, kernel_size=(1, 1), stride=(1, 1), bias=False)
              (softmax_left): Softmax(dim=2)
            )
            (conv2): Conv2d(384, 384, kernel_size=(3, 3), stride=(1, 1), padding=(1, 1), bias=False)
            (bn2): BatchNorm2d(384, eps=1e-05, momentum=0.1, affine=True, track_running_stats=True)
          )
        )
      )
      (fuse_layers): ModuleList(
        (0): ModuleList(
          (0): None
          (1): Sequential(
            (0): Conv2d(96, 48, kernel_size=(1, 1), stride=(1, 1), bias=False)
            (1): BatchNorm2d(48, eps=1e-05, momentum=0.1, affine=True, track_running_stats=True)
            (2): Upsample(scale_factor=2.0, mode=nearest)
          )
          (2): Sequential(
            (0): Conv2d(192, 48, kernel_size=(1, 1), stride=(1, 1), bias=False)
            (1): BatchNorm2d(48, eps=1e-05, momentum=0.1, affine=True, track_running_stats=True)
            (2): Upsample(scale_factor=4.0, mode=nearest)
          )
          (3): Sequential(
            (0): Conv2d(384, 48, kernel_size=(1, 1), stride=(1, 1), bias=False)
            (1): BatchNorm2d(48, eps=1e-05, momentum=0.1, affine=True, track_running_stats=True)
            (2): Upsample(scale_factor=8.0, mode=nearest)
          )
        )
        (1): ModuleList(
          (0): Sequential(
            (0): Sequential(
              (0): Conv2d(48, 96, kernel_size=(3, 3), stride=(2, 2), padding=(1, 1), bias=False)
              (1): BatchNorm2d(96, eps=1e-05, momentum=0.1, affine=True, track_running_stats=True)
            )
          )
          (1): None
          (2): Sequential(
            (0): Conv2d(192, 96, kernel_size=(1, 1), stride=(1, 1), bias=False)
            (1): BatchNorm2d(96, eps=1e-05, momentum=0.1, affine=True, track_running_stats=True)
            (2): Upsample(scale_factor=2.0, mode=nearest)
          )
          (3): Sequential(
            (0): Conv2d(384, 96, kernel_size=(1, 1), stride=(1, 1), bias=False)
            (1): BatchNorm2d(96, eps=1e-05, momentum=0.1, affine=True, track_running_stats=True)
            (2): Upsample(scale_factor=4.0, mode=nearest)
          )
        )
        (2): ModuleList(
          (0): Sequential(
            (0): Sequential(
              (0): Conv2d(48, 48, kernel_size=(3, 3), stride=(2, 2), padding=(1, 1), bias=False)
              (1): BatchNorm2d(48, eps=1e-05, momentum=0.1, affine=True, track_running_stats=True)
              (2): ReLU(inplace=True)
            )
            (1): Sequential(
              (0): Conv2d(48, 192, kernel_size=(3, 3), stride=(2, 2), padding=(1, 1), bias=False)
              (1): BatchNorm2d(192, eps=1e-05, momentum=0.1, affine=True, track_running_stats=True)
            )
          )
          (1): Sequential(
            (0): Sequential(
              (0): Conv2d(96, 192, kernel_size=(3, 3), stride=(2, 2), padding=(1, 1), bias=False)
              (1): BatchNorm2d(192, eps=1e-05, momentum=0.1, affine=True, track_running_stats=True)
            )
          )
          (2): None
          (3): Sequential(
            (0): Conv2d(384, 192, kernel_size=(1, 1), stride=(1, 1), bias=False)
            (1): BatchNorm2d(192, eps=1e-05, momentum=0.1, affine=True, track_running_stats=True)
            (2): Upsample(scale_factor=2.0, mode=nearest)
          )
        )
        (3): ModuleList(
          (0): Sequential(
            (0): Sequential(
              (0): Conv2d(48, 48, kernel_size=(3, 3), stride=(2, 2), padding=(1, 1), bias=False)
              (1): BatchNorm2d(48, eps=1e-05, momentum=0.1, affine=True, track_running_stats=True)
              (2): ReLU(inplace=True)
            )
            (1): Sequential(
              (0): Conv2d(48, 48, kernel_size=(3, 3), stride=(2, 2), padding=(1, 1), bias=False)
              (1): BatchNorm2d(48, eps=1e-05, momentum=0.1, affine=True, track_running_stats=True)
              (2): ReLU(inplace=True)
            )
            (2): Sequential(
              (0): Conv2d(48, 384, kernel_size=(3, 3), stride=(2, 2), padding=(1, 1), bias=False)
              (1): BatchNorm2d(384, eps=1e-05, momentum=0.1, affine=True, track_running_stats=True)
            )
          )
          (1): Sequential(
            (0): Sequential(
              (0): Conv2d(96, 96, kernel_size=(3, 3), stride=(2, 2), padding=(1, 1), bias=False)
              (1): BatchNorm2d(96, eps=1e-05, momentum=0.1, affine=True, track_running_stats=True)
              (2): ReLU(inplace=True)
            )
            (1): Sequential(
              (0): Conv2d(96, 384, kernel_size=(3, 3), stride=(2, 2), padding=(1, 1), bias=False)
              (1): BatchNorm2d(384, eps=1e-05, momentum=0.1, affine=True, track_running_stats=True)
            )
          )
          (2): Sequential(
            (0): Sequential(
              (0): Conv2d(192, 384, kernel_size=(3, 3), stride=(2, 2), padding=(1, 1), bias=False)
              (1): BatchNorm2d(384, eps=1e-05, momentum=0.1, affine=True, track_running_stats=True)
            )
          )
          (3): None
        )
      )
      (relu): ReLU(inplace=True)
    )
    (2): HighResolutionModule(
      (branches): ModuleList(
        (0): Sequential(
          (0): BasicBlock(
            (conv1): Conv2d(48, 48, kernel_size=(3, 3), stride=(1, 1), padding=(1, 1), bias=False)
            (bn1): BatchNorm2d(48, eps=1e-05, momentum=0.1, affine=True, track_running_stats=True)
            (relu): ReLU(inplace=True)
            (PSA): PSA_s(
              (conv_q_right): Conv2d(48, 1, kernel_size=(1, 1), stride=(1, 1), bias=False)
              (conv_v_right): Conv2d(48, 24, kernel_size=(1, 1), stride=(1, 1), bias=False)
              (conv_up): Sequential(
                (0): Conv2d(24, 6, kernel_size=(1, 1), stride=(1, 1))
                (1): LayerNorm((6, 1, 1), eps=1e-05, elementwise_affine=True)
                (2): ReLU(inplace=True)
                (3): Conv2d(6, 48, kernel_size=(1, 1), stride=(1, 1))
              )
              (softmax_right): Softmax(dim=2)
              (sigmoid): Sigmoid()
              (conv_q_left): Conv2d(48, 24, kernel_size=(1, 1), stride=(1, 1), bias=False)
              (avg_pool): AdaptiveAvgPool2d(output_size=1)
              (conv_v_left): Conv2d(48, 24, kernel_size=(1, 1), stride=(1, 1), bias=False)
              (softmax_left): Softmax(dim=2)
            )
            (conv2): Conv2d(48, 48, kernel_size=(3, 3), stride=(1, 1), padding=(1, 1), bias=False)
            (bn2): BatchNorm2d(48, eps=1e-05, momentum=0.1, affine=True, track_running_stats=True)
          )
          (1): BasicBlock(
            (conv1): Conv2d(48, 48, kernel_size=(3, 3), stride=(1, 1), padding=(1, 1), bias=False)
            (bn1): BatchNorm2d(48, eps=1e-05, momentum=0.1, affine=True, track_running_stats=True)
            (relu): ReLU(inplace=True)
            (PSA): PSA_s(
              (conv_q_right): Conv2d(48, 1, kernel_size=(1, 1), stride=(1, 1), bias=False)
              (conv_v_right): Conv2d(48, 24, kernel_size=(1, 1), stride=(1, 1), bias=False)
              (conv_up): Sequential(
                (0): Conv2d(24, 6, kernel_size=(1, 1), stride=(1, 1))
                (1): LayerNorm((6, 1, 1), eps=1e-05, elementwise_affine=True)
                (2): ReLU(inplace=True)
                (3): Conv2d(6, 48, kernel_size=(1, 1), stride=(1, 1))
              )
              (softmax_right): Softmax(dim=2)
              (sigmoid): Sigmoid()
              (conv_q_left): Conv2d(48, 24, kernel_size=(1, 1), stride=(1, 1), bias=False)
              (avg_pool): AdaptiveAvgPool2d(output_size=1)
              (conv_v_left): Conv2d(48, 24, kernel_size=(1, 1), stride=(1, 1), bias=False)
              (softmax_left): Softmax(dim=2)
            )
            (conv2): Conv2d(48, 48, kernel_size=(3, 3), stride=(1, 1), padding=(1, 1), bias=False)
            (bn2): BatchNorm2d(48, eps=1e-05, momentum=0.1, affine=True, track_running_stats=True)
          )
          (2): BasicBlock(
            (conv1): Conv2d(48, 48, kernel_size=(3, 3), stride=(1, 1), padding=(1, 1), bias=False)
            (bn1): BatchNorm2d(48, eps=1e-05, momentum=0.1, affine=True, track_running_stats=True)
            (relu): ReLU(inplace=True)
            (PSA): PSA_s(
              (conv_q_right): Conv2d(48, 1, kernel_size=(1, 1), stride=(1, 1), bias=False)
              (conv_v_right): Conv2d(48, 24, kernel_size=(1, 1), stride=(1, 1), bias=False)
              (conv_up): Sequential(
                (0): Conv2d(24, 6, kernel_size=(1, 1), stride=(1, 1))
                (1): LayerNorm((6, 1, 1), eps=1e-05, elementwise_affine=True)
                (2): ReLU(inplace=True)
                (3): Conv2d(6, 48, kernel_size=(1, 1), stride=(1, 1))
              )
              (softmax_right): Softmax(dim=2)
              (sigmoid): Sigmoid()
              (conv_q_left): Conv2d(48, 24, kernel_size=(1, 1), stride=(1, 1), bias=False)
              (avg_pool): AdaptiveAvgPool2d(output_size=1)
              (conv_v_left): Conv2d(48, 24, kernel_size=(1, 1), stride=(1, 1), bias=False)
              (softmax_left): Softmax(dim=2)
            )
            (conv2): Conv2d(48, 48, kernel_size=(3, 3), stride=(1, 1), padding=(1, 1), bias=False)
            (bn2): BatchNorm2d(48, eps=1e-05, momentum=0.1, affine=True, track_running_stats=True)
          )
          (3): BasicBlock(
            (conv1): Conv2d(48, 48, kernel_size=(3, 3), stride=(1, 1), padding=(1, 1), bias=False)
            (bn1): BatchNorm2d(48, eps=1e-05, momentum=0.1, affine=True, track_running_stats=True)
            (relu): ReLU(inplace=True)
            (PSA): PSA_s(
              (conv_q_right): Conv2d(48, 1, kernel_size=(1, 1), stride=(1, 1), bias=False)
              (conv_v_right): Conv2d(48, 24, kernel_size=(1, 1), stride=(1, 1), bias=False)
              (conv_up): Sequential(
                (0): Conv2d(24, 6, kernel_size=(1, 1), stride=(1, 1))
                (1): LayerNorm((6, 1, 1), eps=1e-05, elementwise_affine=True)
                (2): ReLU(inplace=True)
                (3): Conv2d(6, 48, kernel_size=(1, 1), stride=(1, 1))
              )
              (softmax_right): Softmax(dim=2)
              (sigmoid): Sigmoid()
              (conv_q_left): Conv2d(48, 24, kernel_size=(1, 1), stride=(1, 1), bias=False)
              (avg_pool): AdaptiveAvgPool2d(output_size=1)
              (conv_v_left): Conv2d(48, 24, kernel_size=(1, 1), stride=(1, 1), bias=False)
              (softmax_left): Softmax(dim=2)
            )
            (conv2): Conv2d(48, 48, kernel_size=(3, 3), stride=(1, 1), padding=(1, 1), bias=False)
            (bn2): BatchNorm2d(48, eps=1e-05, momentum=0.1, affine=True, track_running_stats=True)
          )
        )
        (1): Sequential(
          (0): BasicBlock(
            (conv1): Conv2d(96, 96, kernel_size=(3, 3), stride=(1, 1), padding=(1, 1), bias=False)
            (bn1): BatchNorm2d(96, eps=1e-05, momentum=0.1, affine=True, track_running_stats=True)
            (relu): ReLU(inplace=True)
            (PSA): PSA_s(
              (conv_q_right): Conv2d(96, 1, kernel_size=(1, 1), stride=(1, 1), bias=False)
              (conv_v_right): Conv2d(96, 48, kernel_size=(1, 1), stride=(1, 1), bias=False)
              (conv_up): Sequential(
                (0): Conv2d(48, 12, kernel_size=(1, 1), stride=(1, 1))
                (1): LayerNorm((12, 1, 1), eps=1e-05, elementwise_affine=True)
                (2): ReLU(inplace=True)
                (3): Conv2d(12, 96, kernel_size=(1, 1), stride=(1, 1))
              )
              (softmax_right): Softmax(dim=2)
              (sigmoid): Sigmoid()
              (conv_q_left): Conv2d(96, 48, kernel_size=(1, 1), stride=(1, 1), bias=False)
              (avg_pool): AdaptiveAvgPool2d(output_size=1)
              (conv_v_left): Conv2d(96, 48, kernel_size=(1, 1), stride=(1, 1), bias=False)
              (softmax_left): Softmax(dim=2)
            )
            (conv2): Conv2d(96, 96, kernel_size=(3, 3), stride=(1, 1), padding=(1, 1), bias=False)
            (bn2): BatchNorm2d(96, eps=1e-05, momentum=0.1, affine=True, track_running_stats=True)
          )
          (1): BasicBlock(
            (conv1): Conv2d(96, 96, kernel_size=(3, 3), stride=(1, 1), padding=(1, 1), bias=False)
            (bn1): BatchNorm2d(96, eps=1e-05, momentum=0.1, affine=True, track_running_stats=True)
            (relu): ReLU(inplace=True)
            (PSA): PSA_s(
              (conv_q_right): Conv2d(96, 1, kernel_size=(1, 1), stride=(1, 1), bias=False)
              (conv_v_right): Conv2d(96, 48, kernel_size=(1, 1), stride=(1, 1), bias=False)
              (conv_up): Sequential(
                (0): Conv2d(48, 12, kernel_size=(1, 1), stride=(1, 1))
                (1): LayerNorm((12, 1, 1), eps=1e-05, elementwise_affine=True)
                (2): ReLU(inplace=True)
                (3): Conv2d(12, 96, kernel_size=(1, 1), stride=(1, 1))
              )
              (softmax_right): Softmax(dim=2)
              (sigmoid): Sigmoid()
              (conv_q_left): Conv2d(96, 48, kernel_size=(1, 1), stride=(1, 1), bias=False)
              (avg_pool): AdaptiveAvgPool2d(output_size=1)
              (conv_v_left): Conv2d(96, 48, kernel_size=(1, 1), stride=(1, 1), bias=False)
              (softmax_left): Softmax(dim=2)
            )
            (conv2): Conv2d(96, 96, kernel_size=(3, 3), stride=(1, 1), padding=(1, 1), bias=False)
            (bn2): BatchNorm2d(96, eps=1e-05, momentum=0.1, affine=True, track_running_stats=True)
          )
          (2): BasicBlock(
            (conv1): Conv2d(96, 96, kernel_size=(3, 3), stride=(1, 1), padding=(1, 1), bias=False)
            (bn1): BatchNorm2d(96, eps=1e-05, momentum=0.1, affine=True, track_running_stats=True)
            (relu): ReLU(inplace=True)
            (PSA): PSA_s(
              (conv_q_right): Conv2d(96, 1, kernel_size=(1, 1), stride=(1, 1), bias=False)
              (conv_v_right): Conv2d(96, 48, kernel_size=(1, 1), stride=(1, 1), bias=False)
              (conv_up): Sequential(
                (0): Conv2d(48, 12, kernel_size=(1, 1), stride=(1, 1))
                (1): LayerNorm((12, 1, 1), eps=1e-05, elementwise_affine=True)
                (2): ReLU(inplace=True)
                (3): Conv2d(12, 96, kernel_size=(1, 1), stride=(1, 1))
              )
              (softmax_right): Softmax(dim=2)
              (sigmoid): Sigmoid()
              (conv_q_left): Conv2d(96, 48, kernel_size=(1, 1), stride=(1, 1), bias=False)
              (avg_pool): AdaptiveAvgPool2d(output_size=1)
              (conv_v_left): Conv2d(96, 48, kernel_size=(1, 1), stride=(1, 1), bias=False)
              (softmax_left): Softmax(dim=2)
            )
            (conv2): Conv2d(96, 96, kernel_size=(3, 3), stride=(1, 1), padding=(1, 1), bias=False)
            (bn2): BatchNorm2d(96, eps=1e-05, momentum=0.1, affine=True, track_running_stats=True)
          )
          (3): BasicBlock(
            (conv1): Conv2d(96, 96, kernel_size=(3, 3), stride=(1, 1), padding=(1, 1), bias=False)
            (bn1): BatchNorm2d(96, eps=1e-05, momentum=0.1, affine=True, track_running_stats=True)
            (relu): ReLU(inplace=True)
            (PSA): PSA_s(
              (conv_q_right): Conv2d(96, 1, kernel_size=(1, 1), stride=(1, 1), bias=False)
              (conv_v_right): Conv2d(96, 48, kernel_size=(1, 1), stride=(1, 1), bias=False)
              (conv_up): Sequential(
                (0): Conv2d(48, 12, kernel_size=(1, 1), stride=(1, 1))
                (1): LayerNorm((12, 1, 1), eps=1e-05, elementwise_affine=True)
                (2): ReLU(inplace=True)
                (3): Conv2d(12, 96, kernel_size=(1, 1), stride=(1, 1))
              )
              (softmax_right): Softmax(dim=2)
              (sigmoid): Sigmoid()
              (conv_q_left): Conv2d(96, 48, kernel_size=(1, 1), stride=(1, 1), bias=False)
              (avg_pool): AdaptiveAvgPool2d(output_size=1)
              (conv_v_left): Conv2d(96, 48, kernel_size=(1, 1), stride=(1, 1), bias=False)
              (softmax_left): Softmax(dim=2)
            )
            (conv2): Conv2d(96, 96, kernel_size=(3, 3), stride=(1, 1), padding=(1, 1), bias=False)
            (bn2): BatchNorm2d(96, eps=1e-05, momentum=0.1, affine=True, track_running_stats=True)
          )
        )
        (2): Sequential(
          (0): BasicBlock(
            (conv1): Conv2d(192, 192, kernel_size=(3, 3), stride=(1, 1), padding=(1, 1), bias=False)
            (bn1): BatchNorm2d(192, eps=1e-05, momentum=0.1, affine=True, track_running_stats=True)
            (relu): ReLU(inplace=True)
            (PSA): PSA_s(
              (conv_q_right): Conv2d(192, 1, kernel_size=(1, 1), stride=(1, 1), bias=False)
              (conv_v_right): Conv2d(192, 96, kernel_size=(1, 1), stride=(1, 1), bias=False)
              (conv_up): Sequential(
                (0): Conv2d(96, 24, kernel_size=(1, 1), stride=(1, 1))
                (1): LayerNorm((24, 1, 1), eps=1e-05, elementwise_affine=True)
                (2): ReLU(inplace=True)
                (3): Conv2d(24, 192, kernel_size=(1, 1), stride=(1, 1))
              )
              (softmax_right): Softmax(dim=2)
              (sigmoid): Sigmoid()
              (conv_q_left): Conv2d(192, 96, kernel_size=(1, 1), stride=(1, 1), bias=False)
              (avg_pool): AdaptiveAvgPool2d(output_size=1)
              (conv_v_left): Conv2d(192, 96, kernel_size=(1, 1), stride=(1, 1), bias=False)
              (softmax_left): Softmax(dim=2)
            )
            (conv2): Conv2d(192, 192, kernel_size=(3, 3), stride=(1, 1), padding=(1, 1), bias=False)
            (bn2): BatchNorm2d(192, eps=1e-05, momentum=0.1, affine=True, track_running_stats=True)
          )
          (1): BasicBlock(
            (conv1): Conv2d(192, 192, kernel_size=(3, 3), stride=(1, 1), padding=(1, 1), bias=False)
            (bn1): BatchNorm2d(192, eps=1e-05, momentum=0.1, affine=True, track_running_stats=True)
            (relu): ReLU(inplace=True)
            (PSA): PSA_s(
              (conv_q_right): Conv2d(192, 1, kernel_size=(1, 1), stride=(1, 1), bias=False)
              (conv_v_right): Conv2d(192, 96, kernel_size=(1, 1), stride=(1, 1), bias=False)
              (conv_up): Sequential(
                (0): Conv2d(96, 24, kernel_size=(1, 1), stride=(1, 1))
                (1): LayerNorm((24, 1, 1), eps=1e-05, elementwise_affine=True)
                (2): ReLU(inplace=True)
                (3): Conv2d(24, 192, kernel_size=(1, 1), stride=(1, 1))
              )
              (softmax_right): Softmax(dim=2)
              (sigmoid): Sigmoid()
              (conv_q_left): Conv2d(192, 96, kernel_size=(1, 1), stride=(1, 1), bias=False)
              (avg_pool): AdaptiveAvgPool2d(output_size=1)
              (conv_v_left): Conv2d(192, 96, kernel_size=(1, 1), stride=(1, 1), bias=False)
              (softmax_left): Softmax(dim=2)
            )
            (conv2): Conv2d(192, 192, kernel_size=(3, 3), stride=(1, 1), padding=(1, 1), bias=False)
            (bn2): BatchNorm2d(192, eps=1e-05, momentum=0.1, affine=True, track_running_stats=True)
          )
          (2): BasicBlock(
            (conv1): Conv2d(192, 192, kernel_size=(3, 3), stride=(1, 1), padding=(1, 1), bias=False)
            (bn1): BatchNorm2d(192, eps=1e-05, momentum=0.1, affine=True, track_running_stats=True)
            (relu): ReLU(inplace=True)
            (PSA): PSA_s(
              (conv_q_right): Conv2d(192, 1, kernel_size=(1, 1), stride=(1, 1), bias=False)
              (conv_v_right): Conv2d(192, 96, kernel_size=(1, 1), stride=(1, 1), bias=False)
              (conv_up): Sequential(
                (0): Conv2d(96, 24, kernel_size=(1, 1), stride=(1, 1))
                (1): LayerNorm((24, 1, 1), eps=1e-05, elementwise_affine=True)
                (2): ReLU(inplace=True)
                (3): Conv2d(24, 192, kernel_size=(1, 1), stride=(1, 1))
              )
              (softmax_right): Softmax(dim=2)
              (sigmoid): Sigmoid()
              (conv_q_left): Conv2d(192, 96, kernel_size=(1, 1), stride=(1, 1), bias=False)
              (avg_pool): AdaptiveAvgPool2d(output_size=1)
              (conv_v_left): Conv2d(192, 96, kernel_size=(1, 1), stride=(1, 1), bias=False)
              (softmax_left): Softmax(dim=2)
            )
            (conv2): Conv2d(192, 192, kernel_size=(3, 3), stride=(1, 1), padding=(1, 1), bias=False)
            (bn2): BatchNorm2d(192, eps=1e-05, momentum=0.1, affine=True, track_running_stats=True)
          )
          (3): BasicBlock(
            (conv1): Conv2d(192, 192, kernel_size=(3, 3), stride=(1, 1), padding=(1, 1), bias=False)
            (bn1): BatchNorm2d(192, eps=1e-05, momentum=0.1, affine=True, track_running_stats=True)
            (relu): ReLU(inplace=True)
            (PSA): PSA_s(
              (conv_q_right): Conv2d(192, 1, kernel_size=(1, 1), stride=(1, 1), bias=False)
              (conv_v_right): Conv2d(192, 96, kernel_size=(1, 1), stride=(1, 1), bias=False)
              (conv_up): Sequential(
                (0): Conv2d(96, 24, kernel_size=(1, 1), stride=(1, 1))
                (1): LayerNorm((24, 1, 1), eps=1e-05, elementwise_affine=True)
                (2): ReLU(inplace=True)
                (3): Conv2d(24, 192, kernel_size=(1, 1), stride=(1, 1))
              )
              (softmax_right): Softmax(dim=2)
              (sigmoid): Sigmoid()
              (conv_q_left): Conv2d(192, 96, kernel_size=(1, 1), stride=(1, 1), bias=False)
              (avg_pool): AdaptiveAvgPool2d(output_size=1)
              (conv_v_left): Conv2d(192, 96, kernel_size=(1, 1), stride=(1, 1), bias=False)
              (softmax_left): Softmax(dim=2)
            )
            (conv2): Conv2d(192, 192, kernel_size=(3, 3), stride=(1, 1), padding=(1, 1), bias=False)
            (bn2): BatchNorm2d(192, eps=1e-05, momentum=0.1, affine=True, track_running_stats=True)
          )
        )
        (3): Sequential(
          (0): BasicBlock(
            (conv1): Conv2d(384, 384, kernel_size=(3, 3), stride=(1, 1), padding=(1, 1), bias=False)
            (bn1): BatchNorm2d(384, eps=1e-05, momentum=0.1, affine=True, track_running_stats=True)
            (relu): ReLU(inplace=True)
            (PSA): PSA_s(
              (conv_q_right): Conv2d(384, 1, kernel_size=(1, 1), stride=(1, 1), bias=False)
              (conv_v_right): Conv2d(384, 192, kernel_size=(1, 1), stride=(1, 1), bias=False)
              (conv_up): Sequential(
                (0): Conv2d(192, 48, kernel_size=(1, 1), stride=(1, 1))
                (1): LayerNorm((48, 1, 1), eps=1e-05, elementwise_affine=True)
                (2): ReLU(inplace=True)
                (3): Conv2d(48, 384, kernel_size=(1, 1), stride=(1, 1))
              )
              (softmax_right): Softmax(dim=2)
              (sigmoid): Sigmoid()
              (conv_q_left): Conv2d(384, 192, kernel_size=(1, 1), stride=(1, 1), bias=False)
              (avg_pool): AdaptiveAvgPool2d(output_size=1)
              (conv_v_left): Conv2d(384, 192, kernel_size=(1, 1), stride=(1, 1), bias=False)
              (softmax_left): Softmax(dim=2)
            )
            (conv2): Conv2d(384, 384, kernel_size=(3, 3), stride=(1, 1), padding=(1, 1), bias=False)
            (bn2): BatchNorm2d(384, eps=1e-05, momentum=0.1, affine=True, track_running_stats=True)
          )
          (1): BasicBlock(
            (conv1): Conv2d(384, 384, kernel_size=(3, 3), stride=(1, 1), padding=(1, 1), bias=False)
            (bn1): BatchNorm2d(384, eps=1e-05, momentum=0.1, affine=True, track_running_stats=True)
            (relu): ReLU(inplace=True)
            (PSA): PSA_s(
              (conv_q_right): Conv2d(384, 1, kernel_size=(1, 1), stride=(1, 1), bias=False)
              (conv_v_right): Conv2d(384, 192, kernel_size=(1, 1), stride=(1, 1), bias=False)
              (conv_up): Sequential(
                (0): Conv2d(192, 48, kernel_size=(1, 1), stride=(1, 1))
                (1): LayerNorm((48, 1, 1), eps=1e-05, elementwise_affine=True)
                (2): ReLU(inplace=True)
                (3): Conv2d(48, 384, kernel_size=(1, 1), stride=(1, 1))
              )
              (softmax_right): Softmax(dim=2)
              (sigmoid): Sigmoid()
              (conv_q_left): Conv2d(384, 192, kernel_size=(1, 1), stride=(1, 1), bias=False)
              (avg_pool): AdaptiveAvgPool2d(output_size=1)
              (conv_v_left): Conv2d(384, 192, kernel_size=(1, 1), stride=(1, 1), bias=False)
              (softmax_left): Softmax(dim=2)
            )
            (conv2): Conv2d(384, 384, kernel_size=(3, 3), stride=(1, 1), padding=(1, 1), bias=False)
            (bn2): BatchNorm2d(384, eps=1e-05, momentum=0.1, affine=True, track_running_stats=True)
          )
          (2): BasicBlock(
            (conv1): Conv2d(384, 384, kernel_size=(3, 3), stride=(1, 1), padding=(1, 1), bias=False)
            (bn1): BatchNorm2d(384, eps=1e-05, momentum=0.1, affine=True, track_running_stats=True)
            (relu): ReLU(inplace=True)
            (PSA): PSA_s(
              (conv_q_right): Conv2d(384, 1, kernel_size=(1, 1), stride=(1, 1), bias=False)
              (conv_v_right): Conv2d(384, 192, kernel_size=(1, 1), stride=(1, 1), bias=False)
              (conv_up): Sequential(
                (0): Conv2d(192, 48, kernel_size=(1, 1), stride=(1, 1))
                (1): LayerNorm((48, 1, 1), eps=1e-05, elementwise_affine=True)
                (2): ReLU(inplace=True)
                (3): Conv2d(48, 384, kernel_size=(1, 1), stride=(1, 1))
              )
              (softmax_right): Softmax(dim=2)
              (sigmoid): Sigmoid()
              (conv_q_left): Conv2d(384, 192, kernel_size=(1, 1), stride=(1, 1), bias=False)
              (avg_pool): AdaptiveAvgPool2d(output_size=1)
              (conv_v_left): Conv2d(384, 192, kernel_size=(1, 1), stride=(1, 1), bias=False)
              (softmax_left): Softmax(dim=2)
            )
            (conv2): Conv2d(384, 384, kernel_size=(3, 3), stride=(1, 1), padding=(1, 1), bias=False)
            (bn2): BatchNorm2d(384, eps=1e-05, momentum=0.1, affine=True, track_running_stats=True)
          )
          (3): BasicBlock(
            (conv1): Conv2d(384, 384, kernel_size=(3, 3), stride=(1, 1), padding=(1, 1), bias=False)
            (bn1): BatchNorm2d(384, eps=1e-05, momentum=0.1, affine=True, track_running_stats=True)
            (relu): ReLU(inplace=True)
            (PSA): PSA_s(
              (conv_q_right): Conv2d(384, 1, kernel_size=(1, 1), stride=(1, 1), bias=False)
              (conv_v_right): Conv2d(384, 192, kernel_size=(1, 1), stride=(1, 1), bias=False)
              (conv_up): Sequential(
                (0): Conv2d(192, 48, kernel_size=(1, 1), stride=(1, 1))
                (1): LayerNorm((48, 1, 1), eps=1e-05, elementwise_affine=True)
                (2): ReLU(inplace=True)
                (3): Conv2d(48, 384, kernel_size=(1, 1), stride=(1, 1))
              )
              (softmax_right): Softmax(dim=2)
              (sigmoid): Sigmoid()
              (conv_q_left): Conv2d(384, 192, kernel_size=(1, 1), stride=(1, 1), bias=False)
              (avg_pool): AdaptiveAvgPool2d(output_size=1)
              (conv_v_left): Conv2d(384, 192, kernel_size=(1, 1), stride=(1, 1), bias=False)
              (softmax_left): Softmax(dim=2)
            )
            (conv2): Conv2d(384, 384, kernel_size=(3, 3), stride=(1, 1), padding=(1, 1), bias=False)
            (bn2): BatchNorm2d(384, eps=1e-05, momentum=0.1, affine=True, track_running_stats=True)
          )
        )
      )
      (fuse_layers): ModuleList(
        (0): ModuleList(
          (0): None
          (1): Sequential(
            (0): Conv2d(96, 48, kernel_size=(1, 1), stride=(1, 1), bias=False)
            (1): BatchNorm2d(48, eps=1e-05, momentum=0.1, affine=True, track_running_stats=True)
            (2): Upsample(scale_factor=2.0, mode=nearest)
          )
          (2): Sequential(
            (0): Conv2d(192, 48, kernel_size=(1, 1), stride=(1, 1), bias=False)
            (1): BatchNorm2d(48, eps=1e-05, momentum=0.1, affine=True, track_running_stats=True)
            (2): Upsample(scale_factor=4.0, mode=nearest)
          )
          (3): Sequential(
            (0): Conv2d(384, 48, kernel_size=(1, 1), stride=(1, 1), bias=False)
            (1): BatchNorm2d(48, eps=1e-05, momentum=0.1, affine=True, track_running_stats=True)
            (2): Upsample(scale_factor=8.0, mode=nearest)
          )
        )
      )
      (relu): ReLU(inplace=True)
    )
  )
  (final_layer): Conv2d(48, 17, kernel_size=(1, 1), stride=(1, 1))
) 

2021-08-08 03:34:28,470 | train | INFO | Epoch 0 train batch 0/450: 0/7200 mean loss: 0.0020138495601713657 score: 0.9921568627450981
2021-08-08 03:34:34,180 | train | INFO | Epoch 0 train batch 1/450: 16/7200 mean loss: 0.002006014110520482 score: 0.9963235294117647
2021-08-08 03:34:35,008 | train | INFO | Epoch 0 train batch 2/450: 32/7200 mean loss: 0.0020182786975055933 score: 0.7772058823529412
…
